<?xml version="1.0"?>
<net name="Model0" version="11">
	<layers>
		<layer id="3" name="input_ids" type="Parameter" version="opset1">
			<data shape="?,?" element_type="i64" />
			<output>
				<port id="0" precision="I64" names="input_ids">
					<dim>-1</dim>
					<dim>-1</dim>
				</port>
			</output>
		</layer>
		<layer id="2" name="attention_mask" type="Parameter" version="opset1">
			<data shape="?,?" element_type="i64" />
			<output>
				<port id="0" precision="I64" names="attention_mask">
					<dim>-1</dim>
					<dim>-1</dim>
				</port>
			</output>
		</layer>
		<layer id="1" name="position_ids" type="Parameter" version="opset1">
			<data shape="?,?" element_type="i64" />
			<output>
				<port id="0" precision="I64" names="position_ids">
					<dim>-1</dim>
					<dim>-1</dim>
				</port>
			</output>
		</layer>
		<layer id="0" name="beam_idx" type="Parameter" version="opset1">
			<data shape="?" element_type="i32" />
			<output>
				<port id="0" precision="I32" names="beam_idx">
					<dim>-1</dim>
				</port>
			</output>
		</layer>
		<layer id="4" name="Constant_62628" type="Const" version="opset1">
			<data element_type="f32" shape="" offset="0" size="4" />
			<output>
				<port id="0" precision="FP32" />
			</output>
		</layer>
		<layer id="5" name="ShapeOf_62614" type="ShapeOf" version="opset3">
			<data output_type="i64" />
			<input>
				<port id="0" precision="I64">
					<dim>-1</dim>
					<dim>-1</dim>
				</port>
			</input>
			<output>
				<port id="1" precision="I64">
					<dim>2</dim>
				</port>
			</output>
		</layer>
		<layer id="6" name="Constant_62616" type="Const" version="opset1">
			<data element_type="i32" shape="1" offset="0" size="4" />
			<output>
				<port id="0" precision="I32">
					<dim>1</dim>
				</port>
			</output>
		</layer>
		<layer id="7" name="Constant_62618" type="Const" version="opset1">
			<data element_type="i32" shape="" offset="0" size="4" />
			<output>
				<port id="0" precision="I32" />
			</output>
		</layer>
		<layer id="8" name="Gather_62619" type="Gather" version="opset8">
			<data batch_dims="0" />
			<input>
				<port id="0" precision="I64">
					<dim>2</dim>
				</port>
				<port id="1" precision="I32">
					<dim>1</dim>
				</port>
				<port id="2" precision="I32" />
			</input>
			<output>
				<port id="3" precision="I64">
					<dim>1</dim>
				</port>
			</output>
		</layer>
		<layer id="9" name="Constant_62621" type="Const" version="opset1">
			<data element_type="i64" shape="1" offset="4" size="8" />
			<output>
				<port id="0" precision="I64">
					<dim>1</dim>
				</port>
			</output>
		</layer>
		<layer id="10" name="Constant_62623" type="Const" version="opset1">
			<data element_type="i64" shape="1" offset="12" size="8" />
			<output>
				<port id="0" precision="I64">
					<dim>1</dim>
				</port>
			</output>
		</layer>
		<layer id="11" name="Constant_62625" type="Const" version="opset1">
			<data element_type="i64" shape="1" offset="20" size="8" />
			<output>
				<port id="0" precision="I64">
					<dim>1</dim>
				</port>
			</output>
		</layer>
		<layer id="12" name="Concat_62626" type="Concat" version="opset1">
			<data axis="0" />
			<input>
				<port id="0" precision="I64">
					<dim>1</dim>
				</port>
				<port id="1" precision="I64">
					<dim>1</dim>
				</port>
				<port id="2" precision="I64">
					<dim>1</dim>
				</port>
				<port id="3" precision="I64">
					<dim>1</dim>
				</port>
			</input>
			<output>
				<port id="4" precision="I64">
					<dim>4</dim>
				</port>
			</output>
		</layer>
		<layer id="13" name="Broadcast_62629" type="Broadcast" version="opset3">
			<data mode="numpy" />
			<input>
				<port id="0" precision="FP32" />
				<port id="1" precision="I64">
					<dim>4</dim>
				</port>
			</input>
			<output>
				<port id="2" precision="FP32">
					<dim>-1</dim>
					<dim>4</dim>
					<dim>0</dim>
					<dim>128</dim>
				</port>
			</output>
		</layer>
		<layer id="14" name="ReadValue_62214" type="ReadValue" version="opset6">
			<data variable_id="past_key_values.9.valuepresent.9.value" variable_type="f32" variable_shape="?,4,?,128" />
			<input>
				<port id="0" precision="FP32">
					<dim>-1</dim>
					<dim>4</dim>
					<dim>0</dim>
					<dim>128</dim>
				</port>
			</input>
			<output>
				<port id="1" precision="FP32" names="past_key_values.9.value">
					<dim>-1</dim>
					<dim>4</dim>
					<dim>-1</dim>
					<dim>128</dim>
				</port>
			</output>
		</layer>
		<layer id="15" name="Constant_61596" type="Const" version="opset1">
			<data element_type="i32" shape="" offset="0" size="4" />
			<output>
				<port id="0" precision="I32" />
			</output>
		</layer>
		<layer id="16" name="Gather_61597" type="Gather" version="opset8">
			<data batch_dims="0" />
			<input>
				<port id="0" precision="FP32">
					<dim>-1</dim>
					<dim>4</dim>
					<dim>-1</dim>
					<dim>128</dim>
				</port>
				<port id="1" precision="I32">
					<dim>-1</dim>
				</port>
				<port id="2" precision="I32" />
			</input>
			<output>
				<port id="3" precision="FP32">
					<dim>-1</dim>
					<dim>4</dim>
					<dim>-1</dim>
					<dim>128</dim>
				</port>
			</output>
		</layer>
		<layer id="17" name="Constant_51901" type="Const" version="opset1">
			<data element_type="f32" shape="1, 1, 3584" offset="28" size="14336" />
			<output>
				<port id="0" precision="FP32">
					<dim>1</dim>
					<dim>1</dim>
					<dim>3584</dim>
				</port>
			</output>
		</layer>
		<layer id="18" name="self.model.embed_tokens.weight" type="Const" version="opset1">
			<data element_type="u8" shape="152064, 3584" offset="14364" size="544997376" />
			<output>
				<port id="0" precision="U8">
					<dim>152064</dim>
					<dim>3584</dim>
				</port>
			</output>
		</layer>
		<layer id="19" name="Convert_77245" type="Convert" version="opset1">
			<data destination_type="f16" />
			<input>
				<port id="0" precision="U8">
					<dim>152064</dim>
					<dim>3584</dim>
				</port>
			</input>
			<output>
				<port id="1" precision="FP16">
					<dim>152064</dim>
					<dim>3584</dim>
				</port>
			</output>
		</layer>
		<layer id="20" name="self.model.embed_tokens.weight/zero_point" type="Const" version="opset1">
			<data element_type="u8" shape="152064, 1" offset="545011740" size="152064" />
			<output>
				<port id="0" precision="U8">
					<dim>152064</dim>
					<dim>1</dim>
				</port>
			</output>
		</layer>
		<layer id="21" name="Convert_77248" type="Convert" version="opset1">
			<data destination_type="f16" />
			<input>
				<port id="0" precision="U8">
					<dim>152064</dim>
					<dim>1</dim>
				</port>
			</input>
			<output>
				<port id="1" precision="FP16">
					<dim>152064</dim>
					<dim>1</dim>
				</port>
			</output>
		</layer>
		<layer id="22" name="self.model.embed_tokens.weight/zero_point/subtract" type="Subtract" version="opset1">
			<data auto_broadcast="numpy" />
			<input>
				<port id="0" precision="FP16">
					<dim>152064</dim>
					<dim>3584</dim>
				</port>
				<port id="1" precision="FP16">
					<dim>152064</dim>
					<dim>1</dim>
				</port>
			</input>
			<output>
				<port id="2" precision="FP16">
					<dim>152064</dim>
					<dim>3584</dim>
				</port>
			</output>
		</layer>
		<layer id="23" name="self.model.embed_tokens.weight/scale" type="Const" version="opset1">
			<data element_type="f16" shape="152064, 1" offset="545163804" size="304128" />
			<output>
				<port id="0" precision="FP16">
					<dim>152064</dim>
					<dim>1</dim>
				</port>
			</output>
		</layer>
		<layer id="24" name="self.model.embed_tokens.weight/fq_weights_0" type="Multiply" version="opset1">
			<data auto_broadcast="numpy" />
			<input>
				<port id="0" precision="FP16">
					<dim>152064</dim>
					<dim>3584</dim>
				</port>
				<port id="1" precision="FP16">
					<dim>152064</dim>
					<dim>1</dim>
				</port>
			</input>
			<output>
				<port id="2" precision="FP16">
					<dim>152064</dim>
					<dim>3584</dim>
				</port>
			</output>
		</layer>
		<layer id="25" name="__module.model.embed_tokens/ov_ext::embedding/Convert" type="Convert" version="opset1">
			<data destination_type="f32" />
			<rt_info>
				<attribute name="decompression" version="0" />
			</rt_info>
			<input>
				<port id="0" precision="FP16">
					<dim>152064</dim>
					<dim>3584</dim>
				</port>
			</input>
			<output>
				<port id="1" precision="FP32">
					<dim>152064</dim>
					<dim>3584</dim>
				</port>
			</output>
		</layer>
		<layer id="26" name="__module.model.embed_tokens/ov_ext::embedding/Convert_1" type="Convert" version="opset1">
			<data destination_type="i32" />
			<input>
				<port id="0" precision="I64">
					<dim>-1</dim>
					<dim>-1</dim>
				</port>
			</input>
			<output>
				<port id="1" precision="I32">
					<dim>-1</dim>
					<dim>-1</dim>
				</port>
			</output>
		</layer>
		<layer id="27" name="__module.model.embed_tokens/ov_ext::embedding/Constant" type="Const" version="opset1">
			<data element_type="i32" shape="" offset="0" size="4" />
			<output>
				<port id="0" precision="I32" />
			</output>
		</layer>
		<layer id="28" name="__module.model.embed_tokens/ov_ext::embedding/Gather" type="Gather" version="opset8">
			<data batch_dims="0" />
			<input>
				<port id="0" precision="FP32">
					<dim>152064</dim>
					<dim>3584</dim>
				</port>
				<port id="1" precision="I32">
					<dim>-1</dim>
					<dim>-1</dim>
				</port>
				<port id="2" precision="I32" />
			</input>
			<output>
				<port id="3" precision="FP32" names="283,363,374,hidden_states.1,inputs_embeds">
					<dim>-1</dim>
					<dim>-1</dim>
					<dim>3584</dim>
				</port>
			</output>
		</layer>
		<layer id="29" name="Constant_51810" type="Const" version="opset1">
			<data element_type="f32" shape="1, 1, 3584" offset="545467932" size="14336" />
			<output>
				<port id="0" precision="FP32">
					<dim>1</dim>
					<dim>1</dim>
					<dim>3584</dim>
				</port>
			</output>
		</layer>
		<layer id="30" name="Constant_51809" type="Const" version="opset1">
			<data element_type="f32" shape="1, 1, 1" offset="545482268" size="4" />
			<output>
				<port id="0" precision="FP32">
					<dim>1</dim>
					<dim>1</dim>
					<dim>1</dim>
				</port>
			</output>
		</layer>
		<layer id="31" name="Constant_51807" type="Const" version="opset1">
			<data element_type="f32" shape="1, 1, 1" offset="545482272" size="4" />
			<output>
				<port id="0" precision="FP32">
					<dim>1</dim>
					<dim>1</dim>
					<dim>1</dim>
				</port>
			</output>
		</layer>
		<layer id="32" name="__module.model.layers.0.input_layernorm/aten::pow/Power" type="Power" version="opset1">
			<data auto_broadcast="numpy" />
			<input>
				<port id="0" precision="FP32">
					<dim>-1</dim>
					<dim>-1</dim>
					<dim>3584</dim>
				</port>
				<port id="1" precision="FP32">
					<dim>1</dim>
					<dim>1</dim>
					<dim>1</dim>
				</port>
			</input>
			<output>
				<port id="2" precision="FP32" names="364">
					<dim>-1</dim>
					<dim>-1</dim>
					<dim>3584</dim>
				</port>
			</output>
		</layer>
		<layer id="33" name="Constant_661" type="Const" version="opset1">
			<data element_type="i64" shape="1" offset="545482276" size="8" />
			<output>
				<port id="0" precision="I64" names="365">
					<dim>1</dim>
				</port>
			</output>
		</layer>
		<layer id="34" name="__module.model.layers.0.input_layernorm/aten::mean/ReduceMean" type="ReduceMean" version="opset1">
			<data keep_dims="true" />
			<input>
				<port id="0" precision="FP32">
					<dim>-1</dim>
					<dim>-1</dim>
					<dim>3584</dim>
				</port>
				<port id="1" precision="I64">
					<dim>1</dim>
				</port>
			</input>
			<output>
				<port id="2" precision="FP32" names="366,variance.1">
					<dim>-1</dim>
					<dim>-1</dim>
					<dim>1</dim>
				</port>
			</output>
		</layer>
		<layer id="35" name="Constant_51808" type="Const" version="opset1">
			<data element_type="f32" shape="1, 1, 1" offset="545482284" size="4" />
			<output>
				<port id="0" precision="FP32">
					<dim>1</dim>
					<dim>1</dim>
					<dim>1</dim>
				</port>
			</output>
		</layer>
		<layer id="36" name="__module.model.layers.0.input_layernorm/aten::add/Add" type="Add" version="opset1">
			<data auto_broadcast="numpy" />
			<input>
				<port id="0" precision="FP32">
					<dim>-1</dim>
					<dim>-1</dim>
					<dim>1</dim>
				</port>
				<port id="1" precision="FP32">
					<dim>1</dim>
					<dim>1</dim>
					<dim>1</dim>
				</port>
			</input>
			<output>
				<port id="2" precision="FP32" names="367">
					<dim>-1</dim>
					<dim>-1</dim>
					<dim>1</dim>
				</port>
			</output>
		</layer>
		<layer id="37" name="__module.model.layers.0.input_layernorm/aten::rsqrt/Sqrt" type="Sqrt" version="opset1">
			<input>
				<port id="0" precision="FP32">
					<dim>-1</dim>
					<dim>-1</dim>
					<dim>1</dim>
				</port>
			</input>
			<output>
				<port id="1" precision="FP32">
					<dim>-1</dim>
					<dim>-1</dim>
					<dim>1</dim>
				</port>
			</output>
		</layer>
		<layer id="38" name="__module.model.layers.0.input_layernorm/aten::rsqrt/Divide" type="Divide" version="opset1">
			<data auto_broadcast="numpy" m_pythondiv="true" />
			<input>
				<port id="0" precision="FP32">
					<dim>1</dim>
					<dim>1</dim>
					<dim>1</dim>
				</port>
				<port id="1" precision="FP32">
					<dim>-1</dim>
					<dim>-1</dim>
					<dim>1</dim>
				</port>
			</input>
			<output>
				<port id="2" precision="FP32" names="368">
					<dim>-1</dim>
					<dim>-1</dim>
					<dim>1</dim>
				</port>
			</output>
		</layer>
		<layer id="39" name="__module.model.layers.0.input_layernorm/aten::mul/Multiply" type="Multiply" version="opset1">
			<data auto_broadcast="numpy" />
			<input>
				<port id="0" precision="FP32">
					<dim>-1</dim>
					<dim>-1</dim>
					<dim>3584</dim>
				</port>
				<port id="1" precision="FP32">
					<dim>-1</dim>
					<dim>-1</dim>
					<dim>1</dim>
				</port>
			</input>
			<output>
				<port id="2" precision="FP32" names="369,370,hidden_states.3,hidden_states.5">
					<dim>-1</dim>
					<dim>-1</dim>
					<dim>3584</dim>
				</port>
			</output>
		</layer>
		<layer id="40" name="__module.model.layers.0.input_layernorm/aten::mul/Multiply_1" type="Multiply" version="opset1">
			<data auto_broadcast="numpy" />
			<input>
				<port id="0" precision="FP32">
					<dim>1</dim>
					<dim>1</dim>
					<dim>3584</dim>
				</port>
				<port id="1" precision="FP32">
					<dim>-1</dim>
					<dim>-1</dim>
					<dim>3584</dim>
				</port>
			</input>
			<output>
				<port id="2" precision="FP32" names="371,373,hidden_states.7">
					<dim>-1</dim>
					<dim>-1</dim>
					<dim>3584</dim>
				</port>
			</output>
		</layer>
		<layer id="41" name="self.model.layers.0.self_attn.q_proj.weight" type="Const" version="opset1">
			<data element_type="i4" shape="3584, 28, 128" offset="545482288" size="6422528" />
			<output>
				<port id="0" precision="I4">
					<dim>3584</dim>
					<dim>28</dim>
					<dim>128</dim>
				</port>
			</output>
		</layer>
		<layer id="42" name="Convert_77852" type="Convert" version="opset1">
			<data destination_type="f16" />
			<input>
				<port id="0" precision="I4">
					<dim>3584</dim>
					<dim>28</dim>
					<dim>128</dim>
				</port>
			</input>
			<output>
				<port id="1" precision="FP16">
					<dim>3584</dim>
					<dim>28</dim>
					<dim>128</dim>
				</port>
			</output>
		</layer>
		<layer id="43" name="self.model.layers.0.self_attn.q_proj.weight/scale" type="Const" version="opset1">
			<data element_type="f16" shape="3584, 28, 1" offset="551904816" size="200704" />
			<output>
				<port id="0" precision="FP16">
					<dim>3584</dim>
					<dim>28</dim>
					<dim>1</dim>
				</port>
			</output>
		</layer>
		<layer id="44" name="self.model.layers.0.self_attn.q_proj.weight/fq_weights_1" type="Multiply" version="opset1">
			<data auto_broadcast="numpy" />
			<input>
				<port id="0" precision="FP16">
					<dim>3584</dim>
					<dim>28</dim>
					<dim>128</dim>
				</port>
				<port id="1" precision="FP16">
					<dim>3584</dim>
					<dim>28</dim>
					<dim>1</dim>
				</port>
			</input>
			<output>
				<port id="2" precision="FP16">
					<dim>3584</dim>
					<dim>28</dim>
					<dim>128</dim>
				</port>
			</output>
		</layer>
		<layer id="45" name="Constant_77856" type="Const" version="opset1">
			<data element_type="i32" shape="2" offset="552105520" size="8" />
			<output>
				<port id="0" precision="I32">
					<dim>2</dim>
				</port>
			</output>
		</layer>
		<layer id="46" name="Reshape_77857" type="Reshape" version="opset1">
			<data special_zero="false" />
			<input>
				<port id="0" precision="FP16">
					<dim>3584</dim>
					<dim>28</dim>
					<dim>128</dim>
				</port>
				<port id="1" precision="I32">
					<dim>2</dim>
				</port>
			</input>
			<output>
				<port id="2" precision="FP16">
					<dim>3584</dim>
					<dim>3584</dim>
				</port>
			</output>
		</layer>
		<layer id="47" name="__module.model.layers.0.self_attn.q_proj/ov_ext::linear/ConvertLike" type="Convert" version="opset1">
			<data destination_type="f32" />
			<rt_info>
				<attribute name="decompression" version="0" />
			</rt_info>
			<input>
				<port id="0" precision="FP16">
					<dim>3584</dim>
					<dim>3584</dim>
				</port>
			</input>
			<output>
				<port id="1" precision="FP32">
					<dim>3584</dim>
					<dim>3584</dim>
				</port>
			</output>
		</layer>
		<layer id="48" name="__module.model.layers.0.self_attn.q_proj/ov_ext::linear/MatMul" type="MatMul" version="opset1">
			<data transpose_a="false" transpose_b="true" />
			<input>
				<port id="0" precision="FP32">
					<dim>-1</dim>
					<dim>-1</dim>
					<dim>3584</dim>
				</port>
				<port id="1" precision="FP32">
					<dim>3584</dim>
					<dim>3584</dim>
				</port>
			</input>
			<output>
				<port id="2" precision="FP32">
					<dim>-1</dim>
					<dim>-1</dim>
					<dim>3584</dim>
				</port>
			</output>
		</layer>
		<layer id="49" name="self.model.layers.0.self_attn.q_proj.bias" type="Const" version="opset1">
			<data element_type="bf16" shape="3584" offset="552105528" size="7168" />
			<output>
				<port id="0" precision="BF16" names="self.model.layers.0.self_attn.q_proj.bias">
					<dim>3584</dim>
				</port>
			</output>
		</layer>
		<layer id="50" name="__module.model.layers.0.self_attn.q_proj/ov_ext::linear/ConvertLike_1" type="Convert" version="opset1">
			<data destination_type="f32" />
			<rt_info>
				<attribute name="decompression" version="0" />
			</rt_info>
			<input>
				<port id="0" precision="BF16">
					<dim>3584</dim>
				</port>
			</input>
			<output>
				<port id="1" precision="FP32">
					<dim>3584</dim>
				</port>
			</output>
		</layer>
		<layer id="51" name="__module.model.layers.0.self_attn.q_proj/ov_ext::linear/Add" type="Add" version="opset1">
			<data auto_broadcast="numpy" />
			<input>
				<port id="0" precision="FP32">
					<dim>-1</dim>
					<dim>-1</dim>
					<dim>3584</dim>
				</port>
				<port id="1" precision="FP32">
					<dim>3584</dim>
				</port>
			</input>
			<output>
				<port id="2" precision="FP32" names="383,query_states.1">
					<dim>-1</dim>
					<dim>-1</dim>
					<dim>3584</dim>
				</port>
			</output>
		</layer>
		<layer id="52" name="Constant_60057" type="Const" version="opset1">
			<data element_type="i64" shape="4" offset="552112696" size="32" />
			<output>
				<port id="0" precision="I64">
					<dim>4</dim>
				</port>
			</output>
		</layer>
		<layer id="53" name="__module.model.layers.0.self_attn/aten::view/Reshape" type="Reshape" version="opset1">
			<data special_zero="true" />
			<input>
				<port id="0" precision="FP32">
					<dim>-1</dim>
					<dim>-1</dim>
					<dim>3584</dim>
				</port>
				<port id="1" precision="I64">
					<dim>4</dim>
				</port>
			</input>
			<output>
				<port id="2" precision="FP32" names="391">
					<dim>-1</dim>
					<dim>-1</dim>
					<dim>28</dim>
					<dim>128</dim>
				</port>
			</output>
		</layer>
		<layer id="54" name="__module.model.layers.0.self_attn/aten::transpose/Constant" type="Const" version="opset1">
			<data element_type="i32" shape="4" offset="552112728" size="16" />
			<output>
				<port id="0" precision="I32">
					<dim>4</dim>
				</port>
			</output>
		</layer>
		<layer id="55" name="__module.model.layers.0.self_attn/aten::transpose/Transpose" type="Transpose" version="opset1">
			<input>
				<port id="0" precision="FP32">
					<dim>-1</dim>
					<dim>-1</dim>
					<dim>28</dim>
					<dim>128</dim>
				</port>
				<port id="1" precision="I32">
					<dim>4</dim>
				</port>
			</input>
			<output>
				<port id="2" precision="FP32" names="392,q.1">
					<dim>-1</dim>
					<dim>28</dim>
					<dim>-1</dim>
					<dim>128</dim>
				</port>
			</output>
		</layer>
		<layer id="56" name="__module.model.rotary_emb/aten::unsqueeze/Unsqueeze_1" type="Const" version="opset1">
			<data element_type="f32" shape="1, 64, 1" offset="552112744" size="256" />
			<output>
				<port id="0" precision="FP32" names="334,335">
					<dim>1</dim>
					<dim>64</dim>
					<dim>1</dim>
				</port>
			</output>
		</layer>
		<layer id="57" name="ShapeOf_53539" type="ShapeOf" version="opset3">
			<data output_type="i64" />
			<input>
				<port id="0" precision="FP32">
					<dim>-1</dim>
					<dim>-1</dim>
					<dim>3584</dim>
				</port>
			</input>
			<output>
				<port id="1" precision="I64">
					<dim>3</dim>
				</port>
			</output>
		</layer>
		<layer id="58" name="Constant_53540" type="Const" version="opset1">
			<data element_type="i64" shape="1" offset="12" size="8" />
			<output>
				<port id="0" precision="I64">
					<dim>1</dim>
				</port>
			</output>
		</layer>
		<layer id="59" name="Constant_53541" type="Const" version="opset1">
			<data element_type="i64" shape="" offset="12" size="8" />
			<output>
				<port id="0" precision="I64" />
			</output>
		</layer>
		<layer id="60" name="Gather_53542" type="Gather" version="opset8">
			<data batch_dims="0" />
			<input>
				<port id="0" precision="I64">
					<dim>3</dim>
				</port>
				<port id="1" precision="I64">
					<dim>1</dim>
				</port>
				<port id="2" precision="I64" />
			</input>
			<output>
				<port id="3" precision="I64" names="1068,1084,1225,1241,1382,1398,1539,1555,1696,1712,1853,1869,2010,2026,2167,2183,2324,2340,2481,2497,2638,2654,2795,2811,2952,2968,306,3109,3125,3266,3282,336,3423,3439,3580,3596,3737,3753,3894,3910,4051,4067,4208,4224,4365,4381,440,4522,4538,456,4679,4695,597,613,754,770,911,927">
					<dim>1</dim>
				</port>
			</output>
		</layer>
		<layer id="61" name="Constant_45482" type="Const" version="opset1">
			<data element_type="i64" shape="1" offset="552113000" size="8" />
			<output>
				<port id="0" precision="I64">
					<dim>1</dim>
				</port>
			</output>
		</layer>
		<layer id="62" name="Constant_45484" type="Const" version="opset1">
			<data element_type="i64" shape="1" offset="552113000" size="8" />
			<output>
				<port id="0" precision="I64">
					<dim>1</dim>
				</port>
			</output>
		</layer>
		<layer id="63" name="__module.model.rotary_emb/prim::ListConstruct" type="Concat" version="opset1">
			<data axis="0" />
			<input>
				<port id="0" precision="I64">
					<dim>1</dim>
				</port>
				<port id="1" precision="I64">
					<dim>1</dim>
				</port>
				<port id="2" precision="I64">
					<dim>1</dim>
				</port>
			</input>
			<output>
				<port id="3" precision="I64">
					<dim>3</dim>
				</port>
			</output>
		</layer>
		<layer id="64" name="__module.model.rotary_emb/aten::expand/Broadcast" type="Broadcast" version="opset3">
			<data mode="bidirectional" />
			<input>
				<port id="0" precision="FP32">
					<dim>1</dim>
					<dim>64</dim>
					<dim>1</dim>
				</port>
				<port id="1" precision="I64">
					<dim>3</dim>
				</port>
			</input>
			<output>
				<port id="2" precision="FP32" names="338,343,inv_freq_expanded,inv_freq_expanded.1">
					<dim>-1</dim>
					<dim>64</dim>
					<dim>1</dim>
				</port>
			</output>
		</layer>
		<layer id="65" name="217" type="Const" version="opset1">
			<data element_type="i64" shape="" offset="552113000" size="8" />
			<output>
				<port id="0" precision="I64" names="217" />
			</output>
		</layer>
		<layer id="66" name="__module.model.rotary_emb/aten::unsqueeze/Unsqueeze_2" type="Unsqueeze" version="opset1">
			<input>
				<port id="0" precision="I64">
					<dim>-1</dim>
					<dim>-1</dim>
				</port>
				<port id="1" precision="I64" />
			</input>
			<output>
				<port id="2" precision="I64" names="340,341">
					<dim>-1</dim>
					<dim>1</dim>
					<dim>-1</dim>
				</port>
			</output>
		</layer>
		<layer id="67" name="__module.model.rotary_emb/aten::to/Convert_2" type="Convert" version="opset1">
			<data destination_type="f32" />
			<input>
				<port id="0" precision="I64">
					<dim>-1</dim>
					<dim>1</dim>
					<dim>-1</dim>
				</port>
			</input>
			<output>
				<port id="1" precision="FP32" names="342,344,position_ids_expanded,position_ids_expanded.1">
					<dim>-1</dim>
					<dim>1</dim>
					<dim>-1</dim>
				</port>
			</output>
		</layer>
		<layer id="68" name="__module.model.rotary_emb/aten::matmul/MatMul" type="MatMul" version="opset1">
			<data transpose_a="false" transpose_b="false" />
			<input>
				<port id="0" precision="FP32">
					<dim>-1</dim>
					<dim>64</dim>
					<dim>1</dim>
				</port>
				<port id="1" precision="FP32">
					<dim>-1</dim>
					<dim>1</dim>
					<dim>-1</dim>
				</port>
			</input>
			<output>
				<port id="2" precision="FP32" names="345">
					<dim>-1</dim>
					<dim>64</dim>
					<dim>-1</dim>
				</port>
			</output>
		</layer>
		<layer id="69" name="__module.model.rotary_emb/aten::transpose/Constant" type="Const" version="opset1">
			<data element_type="i32" shape="3" offset="552113008" size="12" />
			<output>
				<port id="0" precision="I32">
					<dim>3</dim>
				</port>
			</output>
		</layer>
		<layer id="70" name="__module.model.rotary_emb/aten::transpose/Transpose" type="Transpose" version="opset1">
			<input>
				<port id="0" precision="FP32">
					<dim>-1</dim>
					<dim>64</dim>
					<dim>-1</dim>
				</port>
				<port id="1" precision="I32">
					<dim>3</dim>
				</port>
			</input>
			<output>
				<port id="2" precision="FP32" names="346">
					<dim>-1</dim>
					<dim>-1</dim>
					<dim>64</dim>
				</port>
			</output>
		</layer>
		<layer id="71" name="__module.model.rotary_emb/aten::cat/Concat" type="Concat" version="opset1">
			<data axis="-1" />
			<input>
				<port id="0" precision="FP32">
					<dim>-1</dim>
					<dim>-1</dim>
					<dim>64</dim>
				</port>
				<port id="1" precision="FP32">
					<dim>-1</dim>
					<dim>-1</dim>
					<dim>64</dim>
				</port>
			</input>
			<output>
				<port id="2" precision="FP32" names="348,emb">
					<dim>-1</dim>
					<dim>-1</dim>
					<dim>128</dim>
				</port>
			</output>
		</layer>
		<layer id="72" name="__module.model.rotary_emb/aten::cos/Cos" type="Cos" version="opset1">
			<input>
				<port id="0" precision="FP32">
					<dim>-1</dim>
					<dim>-1</dim>
					<dim>128</dim>
				</port>
			</input>
			<output>
				<port id="1" precision="FP32" names="349,351,353,356,cos.1,cos.3,cos.5">
					<dim>-1</dim>
					<dim>-1</dim>
					<dim>128</dim>
				</port>
			</output>
		</layer>
		<layer id="73" name="__module.model.layers.0.self_attn/aten::unsqueeze/Unsqueeze" type="Unsqueeze" version="opset1">
			<input>
				<port id="0" precision="FP32">
					<dim>-1</dim>
					<dim>-1</dim>
					<dim>128</dim>
				</port>
				<port id="1" precision="I64" />
			</input>
			<output>
				<port id="2" precision="FP32" names="1030,1187,1344,1501,1658,1815,1972,2129,2286,2443,2600,2757,2914,3071,3228,3385,3542,3699,3856,399,4013,4170,4327,4484,4641,559,716,873,cos,cos.11,cos.13,cos.15,cos.17,cos.19,cos.21,cos.23,cos.25,cos.27,cos.29,cos.31,cos.33,cos.35,cos.37,cos.39,cos.41,cos.43,cos.45,cos.47,cos.49,cos.51,cos.53,cos.55,cos.57,cos.59,cos.7,cos.9">
					<dim>-1</dim>
					<dim>1</dim>
					<dim>-1</dim>
					<dim>128</dim>
				</port>
			</output>
		</layer>
		<layer id="74" name="__module.model.layers.0.self_attn/aten::mul/Multiply" type="Multiply" version="opset1">
			<data auto_broadcast="numpy" />
			<input>
				<port id="0" precision="FP32">
					<dim>-1</dim>
					<dim>28</dim>
					<dim>-1</dim>
					<dim>128</dim>
				</port>
				<port id="1" precision="FP32">
					<dim>-1</dim>
					<dim>1</dim>
					<dim>-1</dim>
					<dim>128</dim>
				</port>
			</input>
			<output>
				<port id="2" precision="FP32" names="401">
					<dim>-1</dim>
					<dim>28</dim>
					<dim>-1</dim>
					<dim>128</dim>
				</port>
			</output>
		</layer>
		<layer id="75" name="Constant_1070" type="Const" version="opset1">
			<data element_type="i64" shape="1" offset="552113020" size="8" />
			<output>
				<port id="0" precision="I64">
					<dim>1</dim>
				</port>
			</output>
		</layer>
		<layer id="76" name="Constant_1072" type="Const" version="opset1">
			<data element_type="i64" shape="1" offset="552113028" size="8" />
			<output>
				<port id="0" precision="I64">
					<dim>1</dim>
				</port>
			</output>
		</layer>
		<layer id="77" name="Constant_1074" type="Const" version="opset1">
			<data element_type="i64" shape="1" offset="552113000" size="8" />
			<output>
				<port id="0" precision="I64">
					<dim>1</dim>
				</port>
			</output>
		</layer>
		<layer id="78" name="__module.model.layers.0.self_attn/aten::slice/Reshape" type="Const" version="opset1">
			<data element_type="i64" shape="1" offset="552113036" size="8" />
			<output>
				<port id="0" precision="I64">
					<dim>1</dim>
				</port>
			</output>
		</layer>
		<layer id="79" name="__module.model.layers.0.self_attn/aten::slice/Slice" type="Slice" version="opset8">
			<input>
				<port id="0" precision="FP32">
					<dim>-1</dim>
					<dim>28</dim>
					<dim>-1</dim>
					<dim>128</dim>
				</port>
				<port id="1" precision="I64">
					<dim>1</dim>
				</port>
				<port id="2" precision="I64">
					<dim>1</dim>
				</port>
				<port id="3" precision="I64">
					<dim>1</dim>
				</port>
				<port id="4" precision="I64">
					<dim>1</dim>
				</port>
			</input>
			<output>
				<port id="5" precision="FP32" names="411,x2.1">
					<dim>-1</dim>
					<dim>28</dim>
					<dim>-1</dim>
					<dim>64</dim>
				</port>
			</output>
		</layer>
		<layer id="80" name="Constant_51811" type="Const" version="opset1">
			<data element_type="f32" shape="1, 1, 1, 1" offset="552113044" size="4" />
			<output>
				<port id="0" precision="FP32">
					<dim>1</dim>
					<dim>1</dim>
					<dim>1</dim>
					<dim>1</dim>
				</port>
			</output>
		</layer>
		<layer id="81" name="__module.model.layers.0.self_attn/aten::neg/Multiply" type="Multiply" version="opset1">
			<data auto_broadcast="numpy" />
			<input>
				<port id="0" precision="FP32">
					<dim>-1</dim>
					<dim>28</dim>
					<dim>-1</dim>
					<dim>64</dim>
				</port>
				<port id="1" precision="FP32">
					<dim>1</dim>
					<dim>1</dim>
					<dim>1</dim>
					<dim>1</dim>
				</port>
			</input>
			<output>
				<port id="2" precision="FP32" names="412">
					<dim>-1</dim>
					<dim>28</dim>
					<dim>-1</dim>
					<dim>64</dim>
				</port>
			</output>
		</layer>
		<layer id="82" name="Constant_967" type="Const" version="opset1">
			<data element_type="i64" shape="1" offset="12" size="8" />
			<output>
				<port id="0" precision="I64">
					<dim>1</dim>
				</port>
			</output>
		</layer>
		<layer id="83" name="Constant_1011" type="Const" version="opset1">
			<data element_type="i64" shape="1" offset="552113020" size="8" />
			<output>
				<port id="0" precision="I64">
					<dim>1</dim>
				</port>
			</output>
		</layer>
		<layer id="84" name="Constant_1013" type="Const" version="opset1">
			<data element_type="i64" shape="1" offset="552113000" size="8" />
			<output>
				<port id="0" precision="I64">
					<dim>1</dim>
				</port>
			</output>
		</layer>
		<layer id="85" name="__module.model.layers.0.self_attn/aten::slice/Slice_1" type="Slice" version="opset8">
			<input>
				<port id="0" precision="FP32">
					<dim>-1</dim>
					<dim>28</dim>
					<dim>-1</dim>
					<dim>128</dim>
				</port>
				<port id="1" precision="I64">
					<dim>1</dim>
				</port>
				<port id="2" precision="I64">
					<dim>1</dim>
				</port>
				<port id="3" precision="I64">
					<dim>1</dim>
				</port>
				<port id="4" precision="I64">
					<dim>1</dim>
				</port>
			</input>
			<output>
				<port id="5" precision="FP32" names="406">
					<dim>-1</dim>
					<dim>28</dim>
					<dim>-1</dim>
					<dim>64</dim>
				</port>
			</output>
		</layer>
		<layer id="86" name="__module.model.layers.0.self_attn/aten::cat/Concat" type="Concat" version="opset1">
			<data axis="-1" />
			<input>
				<port id="0" precision="FP32">
					<dim>-1</dim>
					<dim>28</dim>
					<dim>-1</dim>
					<dim>64</dim>
				</port>
				<port id="1" precision="FP32">
					<dim>-1</dim>
					<dim>28</dim>
					<dim>-1</dim>
					<dim>64</dim>
				</port>
			</input>
			<output>
				<port id="2" precision="FP32" names="414">
					<dim>-1</dim>
					<dim>28</dim>
					<dim>-1</dim>
					<dim>128</dim>
				</port>
			</output>
		</layer>
		<layer id="87" name="__module.model.rotary_emb/aten::sin/Sin" type="Sin" version="opset1">
			<input>
				<port id="0" precision="FP32">
					<dim>-1</dim>
					<dim>-1</dim>
					<dim>128</dim>
				</port>
			</input>
			<output>
				<port id="1" precision="FP32" names="350,352,354,357,sin.1,sin.3,sin.5">
					<dim>-1</dim>
					<dim>-1</dim>
					<dim>128</dim>
				</port>
			</output>
		</layer>
		<layer id="88" name="__module.model.layers.0.self_attn/aten::unsqueeze/Unsqueeze_1" type="Unsqueeze" version="opset1">
			<input>
				<port id="0" precision="FP32">
					<dim>-1</dim>
					<dim>-1</dim>
					<dim>128</dim>
				</port>
				<port id="1" precision="I64" />
			</input>
			<output>
				<port id="2" precision="FP32" names="1031,1188,1345,1502,1659,1816,1973,2130,2287,2444,2601,2758,2915,3072,3229,3386,3543,3700,3857,400,4014,4171,4328,4485,4642,560,717,874,sin,sin.11,sin.13,sin.15,sin.17,sin.19,sin.21,sin.23,sin.25,sin.27,sin.29,sin.31,sin.33,sin.35,sin.37,sin.39,sin.41,sin.43,sin.45,sin.47,sin.49,sin.51,sin.53,sin.55,sin.57,sin.59,sin.7,sin.9">
					<dim>-1</dim>
					<dim>1</dim>
					<dim>-1</dim>
					<dim>128</dim>
				</port>
			</output>
		</layer>
		<layer id="89" name="__module.model.layers.0.self_attn/aten::mul/Multiply_1" type="Multiply" version="opset1">
			<data auto_broadcast="numpy" />
			<input>
				<port id="0" precision="FP32">
					<dim>-1</dim>
					<dim>28</dim>
					<dim>-1</dim>
					<dim>128</dim>
				</port>
				<port id="1" precision="FP32">
					<dim>-1</dim>
					<dim>1</dim>
					<dim>-1</dim>
					<dim>128</dim>
				</port>
			</input>
			<output>
				<port id="2" precision="FP32" names="415">
					<dim>-1</dim>
					<dim>28</dim>
					<dim>-1</dim>
					<dim>128</dim>
				</port>
			</output>
		</layer>
		<layer id="90" name="__module.model.layers.0.self_attn/aten::add/Add" type="Add" version="opset1">
			<data auto_broadcast="numpy" />
			<input>
				<port id="0" precision="FP32">
					<dim>-1</dim>
					<dim>28</dim>
					<dim>-1</dim>
					<dim>128</dim>
				</port>
				<port id="1" precision="FP32">
					<dim>-1</dim>
					<dim>28</dim>
					<dim>-1</dim>
					<dim>128</dim>
				</port>
			</input>
			<output>
				<port id="2" precision="FP32" names="416">
					<dim>-1</dim>
					<dim>28</dim>
					<dim>-1</dim>
					<dim>128</dim>
				</port>
			</output>
		</layer>
		<layer id="91" name="Constant_62640" type="Const" version="opset1">
			<data element_type="f32" shape="" offset="0" size="4" />
			<output>
				<port id="0" precision="FP32" />
			</output>
		</layer>
		<layer id="92" name="Constant_62633" type="Const" version="opset1">
			<data element_type="i64" shape="1" offset="4" size="8" />
			<output>
				<port id="0" precision="I64">
					<dim>1</dim>
				</port>
			</output>
		</layer>
		<layer id="93" name="Constant_62635" type="Const" version="opset1">
			<data element_type="i64" shape="1" offset="12" size="8" />
			<output>
				<port id="0" precision="I64">
					<dim>1</dim>
				</port>
			</output>
		</layer>
		<layer id="94" name="Constant_62637" type="Const" version="opset1">
			<data element_type="i64" shape="1" offset="20" size="8" />
			<output>
				<port id="0" precision="I64">
					<dim>1</dim>
				</port>
			</output>
		</layer>
		<layer id="95" name="Concat_62638" type="Concat" version="opset1">
			<data axis="0" />
			<input>
				<port id="0" precision="I64">
					<dim>1</dim>
				</port>
				<port id="1" precision="I64">
					<dim>1</dim>
				</port>
				<port id="2" precision="I64">
					<dim>1</dim>
				</port>
				<port id="3" precision="I64">
					<dim>1</dim>
				</port>
			</input>
			<output>
				<port id="4" precision="I64">
					<dim>4</dim>
				</port>
			</output>
		</layer>
		<layer id="96" name="Broadcast_62641" type="Broadcast" version="opset3">
			<data mode="numpy" />
			<input>
				<port id="0" precision="FP32" />
				<port id="1" precision="I64">
					<dim>4</dim>
				</port>
			</input>
			<output>
				<port id="2" precision="FP32">
					<dim>-1</dim>
					<dim>4</dim>
					<dim>0</dim>
					<dim>128</dim>
				</port>
			</output>
		</layer>
		<layer id="97" name="ReadValue_62104" type="ReadValue" version="opset6">
			<data variable_id="past_key_values.0.keypresent.0.key" variable_type="f32" variable_shape="?,4,?,128" />
			<input>
				<port id="0" precision="FP32">
					<dim>-1</dim>
					<dim>4</dim>
					<dim>0</dim>
					<dim>128</dim>
				</port>
			</input>
			<output>
				<port id="1" precision="FP32" names="past_key_values.0.key">
					<dim>-1</dim>
					<dim>4</dim>
					<dim>-1</dim>
					<dim>128</dim>
				</port>
			</output>
		</layer>
		<layer id="98" name="Constant_61539" type="Const" version="opset1">
			<data element_type="i32" shape="" offset="0" size="4" />
			<output>
				<port id="0" precision="I32" />
			</output>
		</layer>
		<layer id="99" name="Gather_61540" type="Gather" version="opset8">
			<data batch_dims="0" />
			<input>
				<port id="0" precision="FP32">
					<dim>-1</dim>
					<dim>4</dim>
					<dim>-1</dim>
					<dim>128</dim>
				</port>
				<port id="1" precision="I32">
					<dim>-1</dim>
				</port>
				<port id="2" precision="I32" />
			</input>
			<output>
				<port id="3" precision="FP32">
					<dim>-1</dim>
					<dim>4</dim>
					<dim>-1</dim>
					<dim>128</dim>
				</port>
			</output>
		</layer>
		<layer id="100" name="self.model.layers.0.self_attn.k_proj.weight" type="Const" version="opset1">
			<data element_type="i4" shape="512, 28, 128" offset="552113048" size="917504" />
			<output>
				<port id="0" precision="I4">
					<dim>512</dim>
					<dim>28</dim>
					<dim>128</dim>
				</port>
			</output>
		</layer>
		<layer id="101" name="Convert_78251" type="Convert" version="opset1">
			<data destination_type="f16" />
			<input>
				<port id="0" precision="I4">
					<dim>512</dim>
					<dim>28</dim>
					<dim>128</dim>
				</port>
			</input>
			<output>
				<port id="1" precision="FP16">
					<dim>512</dim>
					<dim>28</dim>
					<dim>128</dim>
				</port>
			</output>
		</layer>
		<layer id="102" name="self.model.layers.0.self_attn.k_proj.weight/scale" type="Const" version="opset1">
			<data element_type="f16" shape="512, 28, 1" offset="553030552" size="28672" />
			<output>
				<port id="0" precision="FP16">
					<dim>512</dim>
					<dim>28</dim>
					<dim>1</dim>
				</port>
			</output>
		</layer>
		<layer id="103" name="self.model.layers.0.self_attn.k_proj.weight/fq_weights_1" type="Multiply" version="opset1">
			<data auto_broadcast="numpy" />
			<input>
				<port id="0" precision="FP16">
					<dim>512</dim>
					<dim>28</dim>
					<dim>128</dim>
				</port>
				<port id="1" precision="FP16">
					<dim>512</dim>
					<dim>28</dim>
					<dim>1</dim>
				</port>
			</input>
			<output>
				<port id="2" precision="FP16">
					<dim>512</dim>
					<dim>28</dim>
					<dim>128</dim>
				</port>
			</output>
		</layer>
		<layer id="104" name="Constant_78255" type="Const" version="opset1">
			<data element_type="i32" shape="2" offset="553059224" size="8" />
			<output>
				<port id="0" precision="I32">
					<dim>2</dim>
				</port>
			</output>
		</layer>
		<layer id="105" name="Reshape_78256" type="Reshape" version="opset1">
			<data special_zero="false" />
			<input>
				<port id="0" precision="FP16">
					<dim>512</dim>
					<dim>28</dim>
					<dim>128</dim>
				</port>
				<port id="1" precision="I32">
					<dim>2</dim>
				</port>
			</input>
			<output>
				<port id="2" precision="FP16">
					<dim>512</dim>
					<dim>3584</dim>
				</port>
			</output>
		</layer>
		<layer id="106" name="__module.model.layers.0.self_attn.k_proj/ov_ext::linear/ConvertLike" type="Convert" version="opset1">
			<data destination_type="f32" />
			<rt_info>
				<attribute name="decompression" version="0" />
			</rt_info>
			<input>
				<port id="0" precision="FP16">
					<dim>512</dim>
					<dim>3584</dim>
				</port>
			</input>
			<output>
				<port id="1" precision="FP32">
					<dim>512</dim>
					<dim>3584</dim>
				</port>
			</output>
		</layer>
		<layer id="107" name="__module.model.layers.0.self_attn.k_proj/ov_ext::linear/MatMul" type="MatMul" version="opset1">
			<data transpose_a="false" transpose_b="true" />
			<input>
				<port id="0" precision="FP32">
					<dim>-1</dim>
					<dim>-1</dim>
					<dim>3584</dim>
				</port>
				<port id="1" precision="FP32">
					<dim>512</dim>
					<dim>3584</dim>
				</port>
			</input>
			<output>
				<port id="2" precision="FP32">
					<dim>-1</dim>
					<dim>-1</dim>
					<dim>512</dim>
				</port>
			</output>
		</layer>
		<layer id="108" name="self.model.layers.0.self_attn.k_proj.bias" type="Const" version="opset1">
			<data element_type="bf16" shape="512" offset="553059232" size="1024" />
			<output>
				<port id="0" precision="BF16" names="self.model.layers.0.self_attn.k_proj.bias">
					<dim>512</dim>
				</port>
			</output>
		</layer>
		<layer id="109" name="__module.model.layers.0.self_attn.k_proj/ov_ext::linear/ConvertLike_1" type="Convert" version="opset1">
			<data destination_type="f32" />
			<rt_info>
				<attribute name="decompression" version="0" />
			</rt_info>
			<input>
				<port id="0" precision="BF16">
					<dim>512</dim>
				</port>
			</input>
			<output>
				<port id="1" precision="FP32">
					<dim>512</dim>
				</port>
			</output>
		</layer>
		<layer id="110" name="__module.model.layers.0.self_attn.k_proj/ov_ext::linear/Add" type="Add" version="opset1">
			<data auto_broadcast="numpy" />
			<input>
				<port id="0" precision="FP32">
					<dim>-1</dim>
					<dim>-1</dim>
					<dim>512</dim>
				</port>
				<port id="1" precision="FP32">
					<dim>512</dim>
				</port>
			</input>
			<output>
				<port id="2" precision="FP32" names="386,key_states.3">
					<dim>-1</dim>
					<dim>-1</dim>
					<dim>512</dim>
				</port>
			</output>
		</layer>
		<layer id="111" name="Constant_60058" type="Const" version="opset1">
			<data element_type="i64" shape="4" offset="553060256" size="32" />
			<output>
				<port id="0" precision="I64">
					<dim>4</dim>
				</port>
			</output>
		</layer>
		<layer id="112" name="__module.model.layers.0.self_attn/aten::view/Reshape_1" type="Reshape" version="opset1">
			<data special_zero="true" />
			<input>
				<port id="0" precision="FP32">
					<dim>-1</dim>
					<dim>-1</dim>
					<dim>512</dim>
				</port>
				<port id="1" precision="I64">
					<dim>4</dim>
				</port>
			</input>
			<output>
				<port id="2" precision="FP32" names="394">
					<dim>-1</dim>
					<dim>-1</dim>
					<dim>4</dim>
					<dim>128</dim>
				</port>
			</output>
		</layer>
		<layer id="113" name="__module.model.layers.0.self_attn/aten::transpose/Constant_1" type="Const" version="opset1">
			<data element_type="i32" shape="4" offset="552112728" size="16" />
			<output>
				<port id="0" precision="I32">
					<dim>4</dim>
				</port>
			</output>
		</layer>
		<layer id="114" name="__module.model.layers.0.self_attn/aten::transpose/Transpose_1" type="Transpose" version="opset1">
			<input>
				<port id="0" precision="FP32">
					<dim>-1</dim>
					<dim>-1</dim>
					<dim>4</dim>
					<dim>128</dim>
				</port>
				<port id="1" precision="I32">
					<dim>4</dim>
				</port>
			</input>
			<output>
				<port id="2" precision="FP32" names="395,k.1">
					<dim>-1</dim>
					<dim>4</dim>
					<dim>-1</dim>
					<dim>128</dim>
				</port>
			</output>
		</layer>
		<layer id="115" name="__module.model.layers.0.self_attn/aten::mul/Multiply_2" type="Multiply" version="opset1">
			<data auto_broadcast="numpy" />
			<input>
				<port id="0" precision="FP32">
					<dim>-1</dim>
					<dim>4</dim>
					<dim>-1</dim>
					<dim>128</dim>
				</port>
				<port id="1" precision="FP32">
					<dim>-1</dim>
					<dim>1</dim>
					<dim>-1</dim>
					<dim>128</dim>
				</port>
			</input>
			<output>
				<port id="2" precision="FP32" names="417">
					<dim>-1</dim>
					<dim>4</dim>
					<dim>-1</dim>
					<dim>128</dim>
				</port>
			</output>
		</layer>
		<layer id="116" name="Constant_1213" type="Const" version="opset1">
			<data element_type="i64" shape="1" offset="552113020" size="8" />
			<output>
				<port id="0" precision="I64">
					<dim>1</dim>
				</port>
			</output>
		</layer>
		<layer id="117" name="Constant_1215" type="Const" version="opset1">
			<data element_type="i64" shape="1" offset="552113028" size="8" />
			<output>
				<port id="0" precision="I64">
					<dim>1</dim>
				</port>
			</output>
		</layer>
		<layer id="118" name="Constant_1217" type="Const" version="opset1">
			<data element_type="i64" shape="1" offset="552113000" size="8" />
			<output>
				<port id="0" precision="I64">
					<dim>1</dim>
				</port>
			</output>
		</layer>
		<layer id="119" name="__module.model.layers.0.self_attn/aten::slice/Slice_2" type="Slice" version="opset8">
			<input>
				<port id="0" precision="FP32">
					<dim>-1</dim>
					<dim>4</dim>
					<dim>-1</dim>
					<dim>128</dim>
				</port>
				<port id="1" precision="I64">
					<dim>1</dim>
				</port>
				<port id="2" precision="I64">
					<dim>1</dim>
				</port>
				<port id="3" precision="I64">
					<dim>1</dim>
				</port>
				<port id="4" precision="I64">
					<dim>1</dim>
				</port>
			</input>
			<output>
				<port id="5" precision="FP32" names="427,x2.3">
					<dim>-1</dim>
					<dim>4</dim>
					<dim>-1</dim>
					<dim>64</dim>
				</port>
			</output>
		</layer>
		<layer id="120" name="Constant_51812" type="Const" version="opset1">
			<data element_type="f32" shape="1, 1, 1, 1" offset="552113044" size="4" />
			<output>
				<port id="0" precision="FP32">
					<dim>1</dim>
					<dim>1</dim>
					<dim>1</dim>
					<dim>1</dim>
				</port>
			</output>
		</layer>
		<layer id="121" name="__module.model.layers.0.self_attn/aten::neg/Multiply_1" type="Multiply" version="opset1">
			<data auto_broadcast="numpy" />
			<input>
				<port id="0" precision="FP32">
					<dim>-1</dim>
					<dim>4</dim>
					<dim>-1</dim>
					<dim>64</dim>
				</port>
				<port id="1" precision="FP32">
					<dim>1</dim>
					<dim>1</dim>
					<dim>1</dim>
					<dim>1</dim>
				</port>
			</input>
			<output>
				<port id="2" precision="FP32" names="428">
					<dim>-1</dim>
					<dim>4</dim>
					<dim>-1</dim>
					<dim>64</dim>
				</port>
			</output>
		</layer>
		<layer id="122" name="Constant_1110" type="Const" version="opset1">
			<data element_type="i64" shape="1" offset="12" size="8" />
			<output>
				<port id="0" precision="I64">
					<dim>1</dim>
				</port>
			</output>
		</layer>
		<layer id="123" name="Constant_1154" type="Const" version="opset1">
			<data element_type="i64" shape="1" offset="552113020" size="8" />
			<output>
				<port id="0" precision="I64">
					<dim>1</dim>
				</port>
			</output>
		</layer>
		<layer id="124" name="Constant_1156" type="Const" version="opset1">
			<data element_type="i64" shape="1" offset="552113000" size="8" />
			<output>
				<port id="0" precision="I64">
					<dim>1</dim>
				</port>
			</output>
		</layer>
		<layer id="125" name="__module.model.layers.0.self_attn/aten::slice/Slice_3" type="Slice" version="opset8">
			<input>
				<port id="0" precision="FP32">
					<dim>-1</dim>
					<dim>4</dim>
					<dim>-1</dim>
					<dim>128</dim>
				</port>
				<port id="1" precision="I64">
					<dim>1</dim>
				</port>
				<port id="2" precision="I64">
					<dim>1</dim>
				</port>
				<port id="3" precision="I64">
					<dim>1</dim>
				</port>
				<port id="4" precision="I64">
					<dim>1</dim>
				</port>
			</input>
			<output>
				<port id="5" precision="FP32" names="422">
					<dim>-1</dim>
					<dim>4</dim>
					<dim>-1</dim>
					<dim>64</dim>
				</port>
			</output>
		</layer>
		<layer id="126" name="__module.model.layers.0.self_attn/aten::cat/Concat_1" type="Concat" version="opset1">
			<data axis="-1" />
			<input>
				<port id="0" precision="FP32">
					<dim>-1</dim>
					<dim>4</dim>
					<dim>-1</dim>
					<dim>64</dim>
				</port>
				<port id="1" precision="FP32">
					<dim>-1</dim>
					<dim>4</dim>
					<dim>-1</dim>
					<dim>64</dim>
				</port>
			</input>
			<output>
				<port id="2" precision="FP32" names="430">
					<dim>-1</dim>
					<dim>4</dim>
					<dim>-1</dim>
					<dim>128</dim>
				</port>
			</output>
		</layer>
		<layer id="127" name="__module.model.layers.0.self_attn/aten::mul/Multiply_3" type="Multiply" version="opset1">
			<data auto_broadcast="numpy" />
			<input>
				<port id="0" precision="FP32">
					<dim>-1</dim>
					<dim>4</dim>
					<dim>-1</dim>
					<dim>128</dim>
				</port>
				<port id="1" precision="FP32">
					<dim>-1</dim>
					<dim>1</dim>
					<dim>-1</dim>
					<dim>128</dim>
				</port>
			</input>
			<output>
				<port id="2" precision="FP32" names="431">
					<dim>-1</dim>
					<dim>4</dim>
					<dim>-1</dim>
					<dim>128</dim>
				</port>
			</output>
		</layer>
		<layer id="128" name="__module.model.layers.0.self_attn/aten::add/Add_1" type="Add" version="opset1">
			<data auto_broadcast="numpy" />
			<input>
				<port id="0" precision="FP32">
					<dim>-1</dim>
					<dim>4</dim>
					<dim>-1</dim>
					<dim>128</dim>
				</port>
				<port id="1" precision="FP32">
					<dim>-1</dim>
					<dim>4</dim>
					<dim>-1</dim>
					<dim>128</dim>
				</port>
			</input>
			<output>
				<port id="2" precision="FP32" names="432,key_states.5">
					<dim>-1</dim>
					<dim>4</dim>
					<dim>-1</dim>
					<dim>128</dim>
				</port>
			</output>
		</layer>
		<layer id="129" name="__module.model.layers.0.self_attn/aten::cat/Concat_2" type="Concat" version="opset1">
			<data axis="-2" />
			<input>
				<port id="0" precision="FP32">
					<dim>-1</dim>
					<dim>4</dim>
					<dim>-1</dim>
					<dim>128</dim>
				</port>
				<port id="1" precision="FP32">
					<dim>-1</dim>
					<dim>4</dim>
					<dim>-1</dim>
					<dim>128</dim>
				</port>
			</input>
			<output>
				<port id="2" precision="FP32" names="445,446,hidden_states.9,present.0.key">
					<dim>-1</dim>
					<dim>4</dim>
					<dim>-1</dim>
					<dim>128</dim>
				</port>
			</output>
		</layer>
		<layer id="130" name="219" type="Const" version="opset1">
			<data element_type="i64" shape="" offset="553060288" size="8" />
			<output>
				<port id="0" precision="I64" names="219" />
			</output>
		</layer>
		<layer id="131" name="__module.model.layers.0.self_attn/aten::unsqueeze/Unsqueeze_2" type="Unsqueeze" version="opset1">
			<input>
				<port id="0" precision="FP32">
					<dim>-1</dim>
					<dim>4</dim>
					<dim>-1</dim>
					<dim>128</dim>
				</port>
				<port id="1" precision="I64" />
			</input>
			<output>
				<port id="2" precision="FP32" names="447,448,449">
					<dim>-1</dim>
					<dim>4</dim>
					<dim>1</dim>
					<dim>-1</dim>
					<dim>128</dim>
				</port>
			</output>
		</layer>
		<layer id="132" name="Constant_45490" type="Const" version="opset1">
			<data element_type="i64" shape="1" offset="4" size="8" />
			<output>
				<port id="0" precision="I64">
					<dim>1</dim>
				</port>
			</output>
		</layer>
		<layer id="133" name="Constant_45492" type="Const" version="opset1">
			<data element_type="i64" shape="1" offset="553060296" size="8" />
			<output>
				<port id="0" precision="I64">
					<dim>1</dim>
				</port>
			</output>
		</layer>
		<layer id="134" name="ShapeOf_53583" type="ShapeOf" version="opset3">
			<data output_type="i64" />
			<input>
				<port id="0" precision="FP32">
					<dim>-1</dim>
					<dim>4</dim>
					<dim>-1</dim>
					<dim>128</dim>
				</port>
			</input>
			<output>
				<port id="1" precision="I64">
					<dim>4</dim>
				</port>
			</output>
		</layer>
		<layer id="135" name="Constant_53584" type="Const" version="opset1">
			<data element_type="i64" shape="" offset="553060288" size="8" />
			<output>
				<port id="0" precision="I64" />
			</output>
		</layer>
		<layer id="136" name="Constant_53585" type="Const" version="opset1">
			<data element_type="i64" shape="" offset="12" size="8" />
			<output>
				<port id="0" precision="I64" />
			</output>
		</layer>
		<layer id="137" name="Gather_53586" type="Gather" version="opset8">
			<data batch_dims="0" />
			<input>
				<port id="0" precision="I64">
					<dim>4</dim>
				</port>
				<port id="1" precision="I64" />
				<port id="2" precision="I64" />
			</input>
			<output>
				<port id="3" precision="I64" names="284" />
			</output>
		</layer>
		<layer id="138" name="Constant_53597" type="Const" version="opset1">
			<data element_type="i64" shape="1" offset="552113000" size="8" />
			<output>
				<port id="0" precision="I64">
					<dim>1</dim>
				</port>
			</output>
		</layer>
		<layer id="139" name="Reshape_53598" type="Reshape" version="opset1">
			<data special_zero="false" />
			<input>
				<port id="0" precision="I64" />
				<port id="1" precision="I64">
					<dim>1</dim>
				</port>
			</input>
			<output>
				<port id="2" precision="I64">
					<dim>1</dim>
				</port>
			</output>
		</layer>
		<layer id="140" name="Constant_53552" type="Const" version="opset1">
			<data element_type="i64" shape="" offset="552113000" size="8" />
			<output>
				<port id="0" precision="I64" />
			</output>
		</layer>
		<layer id="141" name="Constant_53553" type="Const" version="opset1">
			<data element_type="i64" shape="" offset="12" size="8" />
			<output>
				<port id="0" precision="I64" />
			</output>
		</layer>
		<layer id="142" name="Gather_53554" type="Gather" version="opset8">
			<data batch_dims="0" />
			<input>
				<port id="0" precision="I64">
					<dim>3</dim>
				</port>
				<port id="1" precision="I64" />
				<port id="2" precision="I64" />
			</input>
			<output>
				<port id="3" precision="I64" names="286,291" />
			</output>
		</layer>
		<layer id="143" name="Constant_53599" type="Const" version="opset1">
			<data element_type="i64" shape="1" offset="552113000" size="8" />
			<output>
				<port id="0" precision="I64">
					<dim>1</dim>
				</port>
			</output>
		</layer>
		<layer id="144" name="Reshape_53600" type="Reshape" version="opset1">
			<data special_zero="false" />
			<input>
				<port id="0" precision="I64" />
				<port id="1" precision="I64">
					<dim>1</dim>
				</port>
			</input>
			<output>
				<port id="2" precision="I64">
					<dim>1</dim>
				</port>
			</output>
		</layer>
		<layer id="145" name="Add_53601" type="Add" version="opset1">
			<data auto_broadcast="numpy" />
			<input>
				<port id="0" precision="I64">
					<dim>1</dim>
				</port>
				<port id="1" precision="I64">
					<dim>1</dim>
				</port>
			</input>
			<output>
				<port id="2" precision="I64" names="1071,1100,1228,1257,1385,1414,1542,1571,1699,1728,1856,1885,2013,2042,2170,2199,2327,2356,2484,2513,2641,2670,2798,2827,2955,2984,3112,3141,3269,3298,3426,3455,3583,3612,3740,3769,3897,3926,4054,4083,4211,4240,4368,4397,443,4525,4554,4682,4711,472,600,629,757,786,914,943">
					<dim>1</dim>
				</port>
			</output>
		</layer>
		<layer id="146" name="Constant_45495" type="Const" version="opset1">
			<data element_type="i64" shape="1" offset="20" size="8" />
			<output>
				<port id="0" precision="I64">
					<dim>1</dim>
				</port>
			</output>
		</layer>
		<layer id="147" name="__module.model.layers.0.self_attn/prim::ListConstruct_2" type="Concat" version="opset1">
			<data axis="0" />
			<input>
				<port id="0" precision="I64">
					<dim>1</dim>
				</port>
				<port id="1" precision="I64">
					<dim>1</dim>
				</port>
				<port id="2" precision="I64">
					<dim>1</dim>
				</port>
				<port id="3" precision="I64">
					<dim>1</dim>
				</port>
				<port id="4" precision="I64">
					<dim>1</dim>
				</port>
			</input>
			<output>
				<port id="5" precision="I64">
					<dim>5</dim>
				</port>
			</output>
		</layer>
		<layer id="148" name="__module.model.layers.0.self_attn/aten::expand/Broadcast" type="Broadcast" version="opset3">
			<data mode="bidirectional" />
			<input>
				<port id="0" precision="FP32">
					<dim>-1</dim>
					<dim>4</dim>
					<dim>1</dim>
					<dim>-1</dim>
					<dim>128</dim>
				</port>
				<port id="1" precision="I64">
					<dim>5</dim>
				</port>
			</input>
			<output>
				<port id="2" precision="FP32" names="451,hidden_states.11">
					<dim>-1</dim>
					<dim>4</dim>
					<dim>7</dim>
					<dim>-1</dim>
					<dim>128</dim>
				</port>
			</output>
		</layer>
		<layer id="149" name="Constant_60059" type="Const" version="opset1">
			<data element_type="i64" shape="4" offset="553060304" size="32" />
			<output>
				<port id="0" precision="I64">
					<dim>4</dim>
				</port>
			</output>
		</layer>
		<layer id="150" name="__module.model.layers.0.self_attn/aten::reshape/Reshape" type="Reshape" version="opset1">
			<data special_zero="true" />
			<input>
				<port id="0" precision="FP32">
					<dim>-1</dim>
					<dim>4</dim>
					<dim>7</dim>
					<dim>-1</dim>
					<dim>128</dim>
				</port>
				<port id="1" precision="I64">
					<dim>4</dim>
				</port>
			</input>
			<output>
				<port id="2" precision="FP32" names="455,key_states.7">
					<dim>-1</dim>
					<dim>28</dim>
					<dim>-1</dim>
					<dim>128</dim>
				</port>
			</output>
		</layer>
		<layer id="151" name="Constant_62652" type="Const" version="opset1">
			<data element_type="f32" shape="" offset="0" size="4" />
			<output>
				<port id="0" precision="FP32" />
			</output>
		</layer>
		<layer id="152" name="Constant_62645" type="Const" version="opset1">
			<data element_type="i64" shape="1" offset="4" size="8" />
			<output>
				<port id="0" precision="I64">
					<dim>1</dim>
				</port>
			</output>
		</layer>
		<layer id="153" name="Constant_62647" type="Const" version="opset1">
			<data element_type="i64" shape="1" offset="12" size="8" />
			<output>
				<port id="0" precision="I64">
					<dim>1</dim>
				</port>
			</output>
		</layer>
		<layer id="154" name="Constant_62649" type="Const" version="opset1">
			<data element_type="i64" shape="1" offset="20" size="8" />
			<output>
				<port id="0" precision="I64">
					<dim>1</dim>
				</port>
			</output>
		</layer>
		<layer id="155" name="Concat_62650" type="Concat" version="opset1">
			<data axis="0" />
			<input>
				<port id="0" precision="I64">
					<dim>1</dim>
				</port>
				<port id="1" precision="I64">
					<dim>1</dim>
				</port>
				<port id="2" precision="I64">
					<dim>1</dim>
				</port>
				<port id="3" precision="I64">
					<dim>1</dim>
				</port>
			</input>
			<output>
				<port id="4" precision="I64">
					<dim>4</dim>
				</port>
			</output>
		</layer>
		<layer id="156" name="Broadcast_62653" type="Broadcast" version="opset3">
			<data mode="numpy" />
			<input>
				<port id="0" precision="FP32" />
				<port id="1" precision="I64">
					<dim>4</dim>
				</port>
			</input>
			<output>
				<port id="2" precision="FP32">
					<dim>-1</dim>
					<dim>4</dim>
					<dim>0</dim>
					<dim>128</dim>
				</port>
			</output>
		</layer>
		<layer id="157" name="ReadValue_62106" type="ReadValue" version="opset6">
			<data variable_id="past_key_values.0.valuepresent.0.value" variable_type="f32" variable_shape="?,4,?,128" />
			<input>
				<port id="0" precision="FP32">
					<dim>-1</dim>
					<dim>4</dim>
					<dim>0</dim>
					<dim>128</dim>
				</port>
			</input>
			<output>
				<port id="1" precision="FP32" names="past_key_values.0.value">
					<dim>-1</dim>
					<dim>4</dim>
					<dim>-1</dim>
					<dim>128</dim>
				</port>
			</output>
		</layer>
		<layer id="158" name="Constant_61542" type="Const" version="opset1">
			<data element_type="i32" shape="" offset="0" size="4" />
			<output>
				<port id="0" precision="I32" />
			</output>
		</layer>
		<layer id="159" name="Gather_61543" type="Gather" version="opset8">
			<data batch_dims="0" />
			<input>
				<port id="0" precision="FP32">
					<dim>-1</dim>
					<dim>4</dim>
					<dim>-1</dim>
					<dim>128</dim>
				</port>
				<port id="1" precision="I32">
					<dim>-1</dim>
				</port>
				<port id="2" precision="I32" />
			</input>
			<output>
				<port id="3" precision="FP32">
					<dim>-1</dim>
					<dim>4</dim>
					<dim>-1</dim>
					<dim>128</dim>
				</port>
			</output>
		</layer>
		<layer id="160" name="self.model.layers.0.self_attn.v_proj.weight" type="Const" version="opset1">
			<data element_type="i4" shape="512, 28, 128" offset="553060336" size="917504" />
			<output>
				<port id="0" precision="I4">
					<dim>512</dim>
					<dim>28</dim>
					<dim>128</dim>
				</port>
			</output>
		</layer>
		<layer id="161" name="Convert_78244" type="Convert" version="opset1">
			<data destination_type="f16" />
			<input>
				<port id="0" precision="I4">
					<dim>512</dim>
					<dim>28</dim>
					<dim>128</dim>
				</port>
			</input>
			<output>
				<port id="1" precision="FP16">
					<dim>512</dim>
					<dim>28</dim>
					<dim>128</dim>
				</port>
			</output>
		</layer>
		<layer id="162" name="self.model.layers.0.self_attn.v_proj.weight/scale" type="Const" version="opset1">
			<data element_type="f16" shape="512, 28, 1" offset="553977840" size="28672" />
			<output>
				<port id="0" precision="FP16">
					<dim>512</dim>
					<dim>28</dim>
					<dim>1</dim>
				</port>
			</output>
		</layer>
		<layer id="163" name="self.model.layers.0.self_attn.v_proj.weight/fq_weights_1" type="Multiply" version="opset1">
			<data auto_broadcast="numpy" />
			<input>
				<port id="0" precision="FP16">
					<dim>512</dim>
					<dim>28</dim>
					<dim>128</dim>
				</port>
				<port id="1" precision="FP16">
					<dim>512</dim>
					<dim>28</dim>
					<dim>1</dim>
				</port>
			</input>
			<output>
				<port id="2" precision="FP16">
					<dim>512</dim>
					<dim>28</dim>
					<dim>128</dim>
				</port>
			</output>
		</layer>
		<layer id="164" name="Constant_78248" type="Const" version="opset1">
			<data element_type="i32" shape="2" offset="553059224" size="8" />
			<output>
				<port id="0" precision="I32">
					<dim>2</dim>
				</port>
			</output>
		</layer>
		<layer id="165" name="Reshape_78249" type="Reshape" version="opset1">
			<data special_zero="false" />
			<input>
				<port id="0" precision="FP16">
					<dim>512</dim>
					<dim>28</dim>
					<dim>128</dim>
				</port>
				<port id="1" precision="I32">
					<dim>2</dim>
				</port>
			</input>
			<output>
				<port id="2" precision="FP16">
					<dim>512</dim>
					<dim>3584</dim>
				</port>
			</output>
		</layer>
		<layer id="166" name="__module.model.layers.0.self_attn.v_proj/ov_ext::linear/ConvertLike" type="Convert" version="opset1">
			<data destination_type="f32" />
			<rt_info>
				<attribute name="decompression" version="0" />
			</rt_info>
			<input>
				<port id="0" precision="FP16">
					<dim>512</dim>
					<dim>3584</dim>
				</port>
			</input>
			<output>
				<port id="1" precision="FP32">
					<dim>512</dim>
					<dim>3584</dim>
				</port>
			</output>
		</layer>
		<layer id="167" name="__module.model.layers.0.self_attn.v_proj/ov_ext::linear/MatMul" type="MatMul" version="opset1">
			<data transpose_a="false" transpose_b="true" />
			<input>
				<port id="0" precision="FP32">
					<dim>-1</dim>
					<dim>-1</dim>
					<dim>3584</dim>
				</port>
				<port id="1" precision="FP32">
					<dim>512</dim>
					<dim>3584</dim>
				</port>
			</input>
			<output>
				<port id="2" precision="FP32">
					<dim>-1</dim>
					<dim>-1</dim>
					<dim>512</dim>
				</port>
			</output>
		</layer>
		<layer id="168" name="self.model.layers.0.self_attn.v_proj.bias" type="Const" version="opset1">
			<data element_type="bf16" shape="512" offset="554006512" size="1024" />
			<output>
				<port id="0" precision="BF16" names="self.model.layers.0.self_attn.v_proj.bias">
					<dim>512</dim>
				</port>
			</output>
		</layer>
		<layer id="169" name="__module.model.layers.0.self_attn.v_proj/ov_ext::linear/ConvertLike_1" type="Convert" version="opset1">
			<data destination_type="f32" />
			<rt_info>
				<attribute name="decompression" version="0" />
			</rt_info>
			<input>
				<port id="0" precision="BF16">
					<dim>512</dim>
				</port>
			</input>
			<output>
				<port id="1" precision="FP32">
					<dim>512</dim>
				</port>
			</output>
		</layer>
		<layer id="170" name="__module.model.layers.0.self_attn.v_proj/ov_ext::linear/Add" type="Add" version="opset1">
			<data auto_broadcast="numpy" />
			<input>
				<port id="0" precision="FP32">
					<dim>-1</dim>
					<dim>-1</dim>
					<dim>512</dim>
				</port>
				<port id="1" precision="FP32">
					<dim>512</dim>
				</port>
			</input>
			<output>
				<port id="2" precision="FP32" names="389,value_states.1">
					<dim>-1</dim>
					<dim>-1</dim>
					<dim>512</dim>
				</port>
			</output>
		</layer>
		<layer id="171" name="Constant_60060" type="Const" version="opset1">
			<data element_type="i64" shape="4" offset="553060256" size="32" />
			<output>
				<port id="0" precision="I64">
					<dim>4</dim>
				</port>
			</output>
		</layer>
		<layer id="172" name="__module.model.layers.0.self_attn/aten::view/Reshape_2" type="Reshape" version="opset1">
			<data special_zero="true" />
			<input>
				<port id="0" precision="FP32">
					<dim>-1</dim>
					<dim>-1</dim>
					<dim>512</dim>
				</port>
				<port id="1" precision="I64">
					<dim>4</dim>
				</port>
			</input>
			<output>
				<port id="2" precision="FP32" names="397">
					<dim>-1</dim>
					<dim>-1</dim>
					<dim>4</dim>
					<dim>128</dim>
				</port>
			</output>
		</layer>
		<layer id="173" name="__module.model.layers.0.self_attn/aten::transpose/Constant_2" type="Const" version="opset1">
			<data element_type="i32" shape="4" offset="552112728" size="16" />
			<output>
				<port id="0" precision="I32">
					<dim>4</dim>
				</port>
			</output>
		</layer>
		<layer id="174" name="__module.model.layers.0.self_attn/aten::transpose/Transpose_2" type="Transpose" version="opset1">
			<input>
				<port id="0" precision="FP32">
					<dim>-1</dim>
					<dim>-1</dim>
					<dim>4</dim>
					<dim>128</dim>
				</port>
				<port id="1" precision="I32">
					<dim>4</dim>
				</port>
			</input>
			<output>
				<port id="2" precision="FP32" names="398">
					<dim>-1</dim>
					<dim>4</dim>
					<dim>-1</dim>
					<dim>128</dim>
				</port>
			</output>
		</layer>
		<layer id="175" name="__module.model.layers.0.self_attn/aten::cat/Concat_3" type="Concat" version="opset1">
			<data axis="-2" />
			<input>
				<port id="0" precision="FP32">
					<dim>-1</dim>
					<dim>4</dim>
					<dim>-1</dim>
					<dim>128</dim>
				</port>
				<port id="1" precision="FP32">
					<dim>-1</dim>
					<dim>4</dim>
					<dim>-1</dim>
					<dim>128</dim>
				</port>
			</input>
			<output>
				<port id="2" precision="FP32" names="461,462,hidden_states.13,present.0.value">
					<dim>-1</dim>
					<dim>4</dim>
					<dim>-1</dim>
					<dim>128</dim>
				</port>
			</output>
		</layer>
		<layer id="176" name="__module.model.layers.0.self_attn/aten::unsqueeze/Unsqueeze_3" type="Unsqueeze" version="opset1">
			<input>
				<port id="0" precision="FP32">
					<dim>-1</dim>
					<dim>4</dim>
					<dim>-1</dim>
					<dim>128</dim>
				</port>
				<port id="1" precision="I64" />
			</input>
			<output>
				<port id="2" precision="FP32" names="463,464,465">
					<dim>-1</dim>
					<dim>4</dim>
					<dim>1</dim>
					<dim>-1</dim>
					<dim>128</dim>
				</port>
			</output>
		</layer>
		<layer id="177" name="__module.model.layers.0.self_attn/aten::expand/Broadcast_1" type="Broadcast" version="opset3">
			<data mode="bidirectional" />
			<input>
				<port id="0" precision="FP32">
					<dim>-1</dim>
					<dim>4</dim>
					<dim>1</dim>
					<dim>-1</dim>
					<dim>128</dim>
				</port>
				<port id="1" precision="I64">
					<dim>5</dim>
				</port>
			</input>
			<output>
				<port id="2" precision="FP32" names="467,hidden_states.15">
					<dim>-1</dim>
					<dim>4</dim>
					<dim>7</dim>
					<dim>-1</dim>
					<dim>128</dim>
				</port>
			</output>
		</layer>
		<layer id="178" name="Constant_60061" type="Const" version="opset1">
			<data element_type="i64" shape="4" offset="553060304" size="32" />
			<output>
				<port id="0" precision="I64">
					<dim>4</dim>
				</port>
			</output>
		</layer>
		<layer id="179" name="__module.model.layers.0.self_attn/aten::reshape/Reshape_1" type="Reshape" version="opset1">
			<data special_zero="true" />
			<input>
				<port id="0" precision="FP32">
					<dim>-1</dim>
					<dim>4</dim>
					<dim>7</dim>
					<dim>-1</dim>
					<dim>128</dim>
				</port>
				<port id="1" precision="I64">
					<dim>4</dim>
				</port>
			</input>
			<output>
				<port id="2" precision="FP32" names="471">
					<dim>-1</dim>
					<dim>28</dim>
					<dim>-1</dim>
					<dim>128</dim>
				</port>
			</output>
		</layer>
		<layer id="180" name="__module.model/aten::triu/Constant" type="Const" version="opset1">
			<data element_type="i32" shape="" offset="0" size="4" />
			<output>
				<port id="0" precision="I32" />
			</output>
		</layer>
		<layer id="181" name="Multiply_47928" type="Const" version="opset1">
			<data element_type="f32" shape="" offset="554007536" size="4" />
			<output>
				<port id="0" precision="FP32" />
			</output>
		</layer>
		<layer id="182" name="Constant_47933" type="Const" version="opset1">
			<data element_type="i64" shape="2" offset="554007540" size="16" />
			<output>
				<port id="0" precision="I64">
					<dim>2</dim>
				</port>
			</output>
		</layer>
		<layer id="183" name="ShapeOf_53559" type="ShapeOf" version="opset3">
			<data output_type="i64" />
			<input>
				<port id="0" precision="I64">
					<dim>-1</dim>
					<dim>-1</dim>
				</port>
			</input>
			<output>
				<port id="1" precision="I64">
					<dim>2</dim>
				</port>
			</output>
		</layer>
		<layer id="184" name="Constant_53560" type="Const" version="opset1">
			<data element_type="i64" shape="" offset="552113000" size="8" />
			<output>
				<port id="0" precision="I64" />
			</output>
		</layer>
		<layer id="185" name="Constant_53561" type="Const" version="opset1">
			<data element_type="i64" shape="" offset="12" size="8" />
			<output>
				<port id="0" precision="I64" />
			</output>
		</layer>
		<layer id="186" name="Gather_53562" type="Gather" version="opset8">
			<data batch_dims="0" />
			<input>
				<port id="0" precision="I64">
					<dim>2</dim>
				</port>
				<port id="1" precision="I64" />
				<port id="2" precision="I64" />
			</input>
			<output>
				<port id="3" precision="I64" names="292,310" />
			</output>
		</layer>
		<layer id="187" name="Constant_53563" type="Const" version="opset1">
			<data element_type="i64" shape="1" offset="552113000" size="8" />
			<output>
				<port id="0" precision="I64">
					<dim>1</dim>
				</port>
			</output>
		</layer>
		<layer id="188" name="Reshape_53564" type="Reshape" version="opset1">
			<data special_zero="false" />
			<input>
				<port id="0" precision="I64" />
				<port id="1" precision="I64">
					<dim>1</dim>
				</port>
			</input>
			<output>
				<port id="2" precision="I64">
					<dim>1</dim>
				</port>
			</output>
		</layer>
		<layer id="189" name="__module.model/prim::ListConstruct" type="Concat" version="opset1">
			<data axis="0" />
			<input>
				<port id="0" precision="I64">
					<dim>1</dim>
				</port>
				<port id="1" precision="I64">
					<dim>1</dim>
				</port>
			</input>
			<output>
				<port id="2" precision="I64">
					<dim>2</dim>
				</port>
			</output>
		</layer>
		<layer id="190" name="Maximum_47934" type="Maximum" version="opset1">
			<data auto_broadcast="numpy" />
			<input>
				<port id="0" precision="I64">
					<dim>2</dim>
				</port>
				<port id="1" precision="I64">
					<dim>2</dim>
				</port>
			</input>
			<output>
				<port id="2" precision="I64">
					<dim>2</dim>
				</port>
			</output>
		</layer>
		<layer id="191" name="__module.model/aten::mul/Multiply" type="Broadcast" version="opset3">
			<data mode="numpy" />
			<input>
				<port id="0" precision="FP32" />
				<port id="1" precision="I64">
					<dim>2</dim>
				</port>
			</input>
			<output>
				<port id="2" precision="FP32" names="295">
					<dim>-1</dim>
					<dim>-1</dim>
				</port>
			</output>
		</layer>
		<layer id="192" name="ShapeOf_53569" type="ShapeOf" version="opset3">
			<data output_type="i32" />
			<input>
				<port id="0" precision="FP32">
					<dim>-1</dim>
					<dim>-1</dim>
				</port>
			</input>
			<output>
				<port id="1" precision="I32">
					<dim>2</dim>
				</port>
			</output>
		</layer>
		<layer id="193" name="Constant_53570" type="Const" version="opset1">
			<data element_type="i64" shape="" offset="552113000" size="8" />
			<output>
				<port id="0" precision="I64" />
			</output>
		</layer>
		<layer id="194" name="Constant_53571" type="Const" version="opset1">
			<data element_type="i64" shape="" offset="12" size="8" />
			<output>
				<port id="0" precision="I64" />
			</output>
		</layer>
		<layer id="195" name="Gather_53572" type="Gather" version="opset8">
			<data batch_dims="0" />
			<input>
				<port id="0" precision="I32">
					<dim>2</dim>
				</port>
				<port id="1" precision="I64" />
				<port id="2" precision="I64" />
			</input>
			<output>
				<port id="3" precision="I32" />
			</output>
		</layer>
		<layer id="196" name="__module.model/aten::triu/Constant_2" type="Const" version="opset1">
			<data element_type="i32" shape="" offset="554007556" size="4" />
			<output>
				<port id="0" precision="I32" />
			</output>
		</layer>
		<layer id="197" name="__module.model/aten::triu/Range" type="Range" version="opset4">
			<data output_type="i32" />
			<input>
				<port id="0" precision="I32" />
				<port id="1" precision="I32" />
				<port id="2" precision="I32" />
			</input>
			<output>
				<port id="3" precision="I32">
					<dim>-1</dim>
				</port>
			</output>
		</layer>
		<layer id="198" name="__module.model/aten::triu/Unsqueeze" type="Unsqueeze" version="opset1">
			<input>
				<port id="0" precision="I32">
					<dim>-1</dim>
				</port>
				<port id="1" precision="I32" />
			</input>
			<output>
				<port id="2" precision="I32">
					<dim>1</dim>
					<dim>-1</dim>
				</port>
			</output>
		</layer>
		<layer id="199" name="__module.model/aten::triu/Convert" type="Const" version="opset1">
			<data element_type="i32" shape="" offset="554007556" size="4" />
			<output>
				<port id="0" precision="I32" />
			</output>
		</layer>
		<layer id="200" name="Constant_53576" type="Const" version="opset1">
			<data element_type="i64" shape="" offset="12" size="8" />
			<output>
				<port id="0" precision="I64" />
			</output>
		</layer>
		<layer id="201" name="Constant_53577" type="Const" version="opset1">
			<data element_type="i64" shape="" offset="12" size="8" />
			<output>
				<port id="0" precision="I64" />
			</output>
		</layer>
		<layer id="202" name="Gather_53578" type="Gather" version="opset8">
			<data batch_dims="0" />
			<input>
				<port id="0" precision="I32">
					<dim>2</dim>
				</port>
				<port id="1" precision="I64" />
				<port id="2" precision="I64" />
			</input>
			<output>
				<port id="3" precision="I32" />
			</output>
		</layer>
		<layer id="203" name="__module.model/aten::triu/Add" type="Add" version="opset1">
			<data auto_broadcast="numpy" />
			<input>
				<port id="0" precision="I32" />
				<port id="1" precision="I32" />
			</input>
			<output>
				<port id="2" precision="I32" />
			</output>
		</layer>
		<layer id="204" name="__module.model/aten::triu/Range_1" type="Range" version="opset4">
			<data output_type="i32" />
			<input>
				<port id="0" precision="I32" />
				<port id="1" precision="I32" />
				<port id="2" precision="I32" />
			</input>
			<output>
				<port id="3" precision="I32">
					<dim>-1</dim>
				</port>
			</output>
		</layer>
		<layer id="205" name="__module.model/aten::triu/Unsqueeze_1" type="Unsqueeze" version="opset1">
			<input>
				<port id="0" precision="I32">
					<dim>-1</dim>
				</port>
				<port id="1" precision="I32" />
			</input>
			<output>
				<port id="2" precision="I32">
					<dim>-1</dim>
					<dim>1</dim>
				</port>
			</output>
		</layer>
		<layer id="206" name="__module.model/aten::triu/GreaterEqual" type="GreaterEqual" version="opset1">
			<data auto_broadcast="numpy" />
			<input>
				<port id="0" precision="I32">
					<dim>1</dim>
					<dim>-1</dim>
				</port>
				<port id="1" precision="I32">
					<dim>-1</dim>
					<dim>1</dim>
				</port>
			</input>
			<output>
				<port id="2" precision="BOOL">
					<dim>-1</dim>
					<dim>-1</dim>
				</port>
			</output>
		</layer>
		<layer id="207" name="__module.model/aten::triu/ConvertLike" type="Const" version="opset1">
			<data element_type="f32" shape="" offset="0" size="4" />
			<output>
				<port id="0" precision="FP32" />
			</output>
		</layer>
		<layer id="208" name="__module.model/aten::triu/Select" type="Select" version="opset1">
			<data auto_broadcast="numpy" />
			<input>
				<port id="0" precision="BOOL">
					<dim>-1</dim>
					<dim>-1</dim>
				</port>
				<port id="1" precision="FP32">
					<dim>-1</dim>
					<dim>-1</dim>
				</port>
				<port id="2" precision="FP32" />
			</input>
			<output>
				<port id="3" precision="FP32" names="296_1">
					<dim>-1</dim>
					<dim>-1</dim>
				</port>
			</output>
		</layer>
		<layer id="209" name="__module.model/aten::arange/Constant" type="Const" version="opset1">
			<data element_type="i32" shape="" offset="0" size="4" />
			<output>
				<port id="0" precision="I32" />
			</output>
		</layer>
		<layer id="210" name="__module.model/aten::arange/Constant_1" type="Const" version="opset1">
			<data element_type="i32" shape="" offset="554007556" size="4" />
			<output>
				<port id="0" precision="I32" />
			</output>
		</layer>
		<layer id="211" name="__module.model/aten::arange/Range" type="Range" version="opset4">
			<data output_type="f32" />
			<input>
				<port id="0" precision="I32" />
				<port id="1" precision="I64" />
				<port id="2" precision="I32" />
			</input>
			<output>
				<port id="3" precision="FP32">
					<dim>-1</dim>
				</port>
			</output>
		</layer>
		<layer id="212" name="__module.model/aten::arange/ConvertLike" type="Convert" version="opset1">
			<data destination_type="i64" />
			<input>
				<port id="0" precision="FP32">
					<dim>-1</dim>
				</port>
			</input>
			<output>
				<port id="1" precision="I64" names="297">
					<dim>-1</dim>
				</port>
			</output>
		</layer>
		<layer id="213" name="__module.model/aten::gt/Convert" type="Convert" version="opset1">
			<data destination_type="f32" />
			<input>
				<port id="0" precision="I64">
					<dim>-1</dim>
				</port>
			</input>
			<output>
				<port id="1" precision="FP32">
					<dim>-1</dim>
				</port>
			</output>
		</layer>
		<layer id="214" name="__module.model/aten::add/Add" type="Add" version="opset1">
			<data auto_broadcast="numpy" />
			<input>
				<port id="0" precision="I64" />
				<port id="1" precision="I64" />
			</input>
			<output>
				<port id="2" precision="I64" names="288" />
			</output>
		</layer>
		<layer id="215" name="__module.model/aten::arange/Constant_2" type="Const" version="opset1">
			<data element_type="i32" shape="" offset="554007556" size="4" />
			<output>
				<port id="0" precision="I32" />
			</output>
		</layer>
		<layer id="216" name="__module.model/aten::arange/Range_1" type="Range" version="opset4">
			<data output_type="f32" />
			<input>
				<port id="0" precision="I64" />
				<port id="1" precision="I64" />
				<port id="2" precision="I32" />
			</input>
			<output>
				<port id="3" precision="FP32" names="290,cache_position">
					<dim>-1</dim>
				</port>
			</output>
		</layer>
		<layer id="217" name="Constant_269" type="Const" version="opset1">
			<data element_type="i64" shape="2" offset="554007560" size="16" />
			<output>
				<port id="0" precision="I64" names="298">
					<dim>2</dim>
				</port>
			</output>
		</layer>
		<layer id="218" name="__module.model/aten::reshape/Reshape" type="Reshape" version="opset1">
			<data special_zero="false" />
			<input>
				<port id="0" precision="FP32">
					<dim>-1</dim>
				</port>
				<port id="1" precision="I64">
					<dim>2</dim>
				</port>
			</input>
			<output>
				<port id="2" precision="FP32" names="299">
					<dim>-1</dim>
					<dim>1</dim>
				</port>
			</output>
		</layer>
		<layer id="219" name="__module.model/aten::gt/Greater" type="Greater" version="opset1">
			<data auto_broadcast="numpy" />
			<input>
				<port id="0" precision="FP32">
					<dim>-1</dim>
				</port>
				<port id="1" precision="FP32">
					<dim>-1</dim>
					<dim>1</dim>
				</port>
			</input>
			<output>
				<port id="2" precision="BOOL" names="300">
					<dim>-1</dim>
					<dim>-1</dim>
				</port>
			</output>
		</layer>
		<layer id="220" name="__module.model/aten::mul_/ConvertLike" type="Convert" version="opset1">
			<data destination_type="f32" />
			<input>
				<port id="0" precision="BOOL">
					<dim>-1</dim>
					<dim>-1</dim>
				</port>
			</input>
			<output>
				<port id="1" precision="FP32">
					<dim>-1</dim>
					<dim>-1</dim>
				</port>
			</output>
		</layer>
		<layer id="221" name="__module.model/aten::mul_/Multiply" type="Multiply" version="opset1">
			<data auto_broadcast="numpy" />
			<input>
				<port id="0" precision="FP32">
					<dim>-1</dim>
					<dim>-1</dim>
				</port>
				<port id="1" precision="FP32">
					<dim>-1</dim>
					<dim>-1</dim>
				</port>
			</input>
			<output>
				<port id="2" precision="FP32" names="296,causal_mask.1">
					<dim>-1</dim>
					<dim>-1</dim>
				</port>
			</output>
		</layer>
		<layer id="222" name="210" type="Const" version="opset1">
			<data element_type="i64" shape="" offset="12" size="8" />
			<output>
				<port id="0" precision="I64" names="210" />
			</output>
		</layer>
		<layer id="223" name="__module.model/aten::unsqueeze/Unsqueeze" type="Unsqueeze" version="opset1">
			<input>
				<port id="0" precision="FP32">
					<dim>-1</dim>
					<dim>-1</dim>
				</port>
				<port id="1" precision="I64" />
			</input>
			<output>
				<port id="2" precision="FP32" names="302">
					<dim>1</dim>
					<dim>-1</dim>
					<dim>-1</dim>
				</port>
			</output>
		</layer>
		<layer id="224" name="__module.model/aten::unsqueeze/Unsqueeze_1" type="Unsqueeze" version="opset1">
			<input>
				<port id="0" precision="FP32">
					<dim>1</dim>
					<dim>-1</dim>
					<dim>-1</dim>
				</port>
				<port id="1" precision="I64" />
			</input>
			<output>
				<port id="2" precision="FP32" names="303,304,305">
					<dim>1</dim>
					<dim>1</dim>
					<dim>-1</dim>
					<dim>-1</dim>
				</port>
			</output>
		</layer>
		<layer id="225" name="Constant_45518" type="Const" version="opset1">
			<data element_type="i64" shape="1" offset="552113000" size="8" />
			<output>
				<port id="0" precision="I64">
					<dim>1</dim>
				</port>
			</output>
		</layer>
		<layer id="226" name="Constant_45520" type="Const" version="opset1">
			<data element_type="i64" shape="1" offset="552113000" size="8" />
			<output>
				<port id="0" precision="I64">
					<dim>1</dim>
				</port>
			</output>
		</layer>
		<layer id="227" name="Constant_45522" type="Const" version="opset1">
			<data element_type="i64" shape="1" offset="552113000" size="8" />
			<output>
				<port id="0" precision="I64">
					<dim>1</dim>
				</port>
			</output>
		</layer>
		<layer id="228" name="__module.model/prim::ListConstruct_1" type="Concat" version="opset1">
			<data axis="0" />
			<input>
				<port id="0" precision="I64">
					<dim>1</dim>
				</port>
				<port id="1" precision="I64">
					<dim>1</dim>
				</port>
				<port id="2" precision="I64">
					<dim>1</dim>
				</port>
				<port id="3" precision="I64">
					<dim>1</dim>
				</port>
			</input>
			<output>
				<port id="4" precision="I64">
					<dim>4</dim>
				</port>
			</output>
		</layer>
		<layer id="229" name="__module.model/aten::expand/Broadcast" type="Broadcast" version="opset3">
			<data mode="bidirectional" />
			<input>
				<port id="0" precision="FP32">
					<dim>1</dim>
					<dim>1</dim>
					<dim>-1</dim>
					<dim>-1</dim>
				</port>
				<port id="1" precision="I64">
					<dim>4</dim>
				</port>
			</input>
			<output>
				<port id="2" precision="FP32" names="308,311,312,313,321,322,323,326_1,327_1,328_1,causal_mask.5">
					<dim>-1</dim>
					<dim>1</dim>
					<dim>-1</dim>
					<dim>-1</dim>
				</port>
			</output>
		</layer>
		<layer id="230" name="Constant_35032" type="Const" version="opset1">
			<data element_type="i64" shape="1" offset="545482276" size="8" />
			<output>
				<port id="0" precision="I64">
					<dim>1</dim>
				</port>
			</output>
		</layer>
		<layer id="231" name="SliceAssign_486/Reshape_3" type="Reshape" version="opset1">
			<data special_zero="false" />
			<input>
				<port id="0" precision="FP32">
					<dim>-1</dim>
					<dim>1</dim>
					<dim>-1</dim>
					<dim>-1</dim>
				</port>
				<port id="1" precision="I64">
					<dim>1</dim>
				</port>
			</input>
			<output>
				<port id="2" precision="FP32">
					<dim>-1</dim>
				</port>
			</output>
		</layer>
		<layer id="232" name="Constant_29117" type="Const" version="opset1">
			<data element_type="i64" shape="" offset="12" size="8" />
			<output>
				<port id="0" precision="I64" />
			</output>
		</layer>
		<layer id="233" name="SliceAssign_486/ShapeOf" type="ShapeOf" version="opset3">
			<data output_type="i64" />
			<input>
				<port id="0" precision="FP32">
					<dim>-1</dim>
					<dim>1</dim>
					<dim>-1</dim>
					<dim>-1</dim>
				</port>
			</input>
			<output>
				<port id="1" precision="I64">
					<dim>4</dim>
				</port>
			</output>
		</layer>
		<layer id="234" name="SliceAssign_486/ReduceProd" type="ReduceProd" version="opset1">
			<data keep_dims="false" />
			<input>
				<port id="0" precision="I64">
					<dim>4</dim>
				</port>
				<port id="1" precision="I64" />
			</input>
			<output>
				<port id="2" precision="I64" />
			</output>
		</layer>
		<layer id="235" name="Constant_29118" type="Const" version="opset1">
			<data element_type="i64" shape="" offset="552113000" size="8" />
			<output>
				<port id="0" precision="I64" />
			</output>
		</layer>
		<layer id="236" name="SliceAssign_486/Range" type="Range" version="opset4">
			<data output_type="i64" />
			<input>
				<port id="0" precision="I64" />
				<port id="1" precision="I64" />
				<port id="2" precision="I64" />
			</input>
			<output>
				<port id="3" precision="I64">
					<dim>-1</dim>
				</port>
			</output>
		</layer>
		<layer id="237" name="SliceAssign_486/Reshape" type="Reshape" version="opset1">
			<data special_zero="false" />
			<input>
				<port id="0" precision="I64">
					<dim>-1</dim>
				</port>
				<port id="1" precision="I64">
					<dim>4</dim>
				</port>
			</input>
			<output>
				<port id="2" precision="I64">
					<dim>-1</dim>
					<dim>1</dim>
					<dim>-1</dim>
					<dim>-1</dim>
				</port>
			</output>
		</layer>
		<layer id="238" name="Constant_475" type="Const" version="opset1">
			<data element_type="i64" shape="1" offset="12" size="8" />
			<output>
				<port id="0" precision="I64">
					<dim>1</dim>
				</port>
			</output>
		</layer>
		<layer id="239" name="Constant_478" type="Const" version="opset1">
			<data element_type="i64" shape="1" offset="552113000" size="8" />
			<output>
				<port id="0" precision="I64">
					<dim>1</dim>
				</port>
			</output>
		</layer>
		<layer id="240" name="SliceAssign_486/Slice_2" type="Slice" version="opset8">
			<input>
				<port id="0" precision="I64">
					<dim>-1</dim>
					<dim>1</dim>
					<dim>-1</dim>
					<dim>-1</dim>
				</port>
				<port id="1" precision="I64">
					<dim>1</dim>
				</port>
				<port id="2" precision="I64">
					<dim>1</dim>
				</port>
				<port id="3" precision="I64">
					<dim>1</dim>
				</port>
				<port id="4" precision="I64">
					<dim>1</dim>
				</port>
			</input>
			<output>
				<port id="5" precision="I64">
					<dim>-1</dim>
					<dim>1</dim>
					<dim>-1</dim>
					<dim>-1</dim>
				</port>
			</output>
		</layer>
		<layer id="241" name="Constant_29120" type="Const" version="opset1">
			<data element_type="i64" shape="2" offset="554007560" size="16" />
			<output>
				<port id="0" precision="I64">
					<dim>2</dim>
				</port>
			</output>
		</layer>
		<layer id="242" name="SliceAssign_486/Reshape_4" type="Reshape" version="opset1">
			<data special_zero="false" />
			<input>
				<port id="0" precision="I64">
					<dim>-1</dim>
					<dim>1</dim>
					<dim>-1</dim>
					<dim>-1</dim>
				</port>
				<port id="1" precision="I64">
					<dim>2</dim>
				</port>
			</input>
			<output>
				<port id="2" precision="I64">
					<dim>-1</dim>
					<dim>1</dim>
				</port>
			</output>
		</layer>
		<layer id="243" name="Constant_358" type="Const" version="opset1">
			<data element_type="i64" shape="1" offset="12" size="8" />
			<output>
				<port id="0" precision="I64">
					<dim>1</dim>
				</port>
			</output>
		</layer>
		<layer id="244" name="Constant_361" type="Const" version="opset1">
			<data element_type="i64" shape="1" offset="552113000" size="8" />
			<output>
				<port id="0" precision="I64">
					<dim>1</dim>
				</port>
			</output>
		</layer>
		<layer id="245" name="__module.model/aten::slice/Slice_5" type="Slice" version="opset8">
			<input>
				<port id="0" precision="FP32">
					<dim>-1</dim>
					<dim>1</dim>
					<dim>-1</dim>
					<dim>-1</dim>
				</port>
				<port id="1" precision="I64">
					<dim>1</dim>
				</port>
				<port id="2" precision="I64">
					<dim>1</dim>
				</port>
				<port id="3" precision="I64">
					<dim>1</dim>
				</port>
				<port id="4" precision="I64">
					<dim>1</dim>
				</port>
			</input>
			<output>
				<port id="5" precision="FP32" names="314,324,329_1">
					<dim>-1</dim>
					<dim>1</dim>
					<dim>-1</dim>
					<dim>-1</dim>
				</port>
			</output>
		</layer>
		<layer id="246" name="__module.model/aten::unsqueeze/Unsqueeze_2" type="Unsqueeze" version="opset1">
			<input>
				<port id="0" precision="I64">
					<dim>-1</dim>
					<dim>-1</dim>
				</port>
				<port id="1" precision="I64" />
			</input>
			<output>
				<port id="2" precision="I64" names="316">
					<dim>-1</dim>
					<dim>1</dim>
					<dim>-1</dim>
				</port>
			</output>
		</layer>
		<layer id="247" name="__module.model/aten::unsqueeze/Unsqueeze_3" type="Unsqueeze" version="opset1">
			<input>
				<port id="0" precision="I64">
					<dim>-1</dim>
					<dim>1</dim>
					<dim>-1</dim>
				</port>
				<port id="1" precision="I64" />
			</input>
			<output>
				<port id="2" precision="I64" names="317,318">
					<dim>-1</dim>
					<dim>1</dim>
					<dim>1</dim>
					<dim>-1</dim>
				</port>
			</output>
		</layer>
		<layer id="248" name="__module.model/aten::add/Convert" type="Convert" version="opset1">
			<data destination_type="f32" />
			<input>
				<port id="0" precision="I64">
					<dim>-1</dim>
					<dim>1</dim>
					<dim>1</dim>
					<dim>-1</dim>
				</port>
			</input>
			<output>
				<port id="1" precision="FP32">
					<dim>-1</dim>
					<dim>1</dim>
					<dim>1</dim>
					<dim>-1</dim>
				</port>
			</output>
		</layer>
		<layer id="249" name="__module.model/aten::add/Add_1" type="Add" version="opset1">
			<data auto_broadcast="numpy" />
			<input>
				<port id="0" precision="FP32">
					<dim>-1</dim>
					<dim>1</dim>
					<dim>-1</dim>
					<dim>-1</dim>
				</port>
				<port id="1" precision="FP32">
					<dim>-1</dim>
					<dim>1</dim>
					<dim>1</dim>
					<dim>-1</dim>
				</port>
			</input>
			<output>
				<port id="2" precision="FP32" names="319,padding_mask.1">
					<dim>-1</dim>
					<dim>1</dim>
					<dim>-1</dim>
					<dim>-1</dim>
				</port>
			</output>
		</layer>
		<layer id="250" name="Constant_51813" type="Const" version="opset1">
			<data element_type="f32" shape="1, 1, 1, 1" offset="0" size="4" />
			<output>
				<port id="0" precision="FP32">
					<dim>1</dim>
					<dim>1</dim>
					<dim>1</dim>
					<dim>1</dim>
				</port>
			</output>
		</layer>
		<layer id="251" name="__module.model/aten::eq/Equal" type="Equal" version="opset1">
			<data auto_broadcast="numpy" />
			<input>
				<port id="0" precision="FP32">
					<dim>-1</dim>
					<dim>1</dim>
					<dim>-1</dim>
					<dim>-1</dim>
				</port>
				<port id="1" precision="FP32">
					<dim>1</dim>
					<dim>1</dim>
					<dim>1</dim>
					<dim>1</dim>
				</port>
			</input>
			<output>
				<port id="2" precision="BOOL" names="320,padding_mask">
					<dim>-1</dim>
					<dim>1</dim>
					<dim>-1</dim>
					<dim>-1</dim>
				</port>
			</output>
		</layer>
		<layer id="252" name="207" type="Const" version="opset1">
			<data element_type="f32" shape="" offset="554007536" size="4" />
			<output>
				<port id="0" precision="FP32" names="207" />
			</output>
		</layer>
		<layer id="253" name="__module.model/aten::masked_fill/Select" type="Select" version="opset1">
			<data auto_broadcast="numpy" />
			<input>
				<port id="0" precision="BOOL">
					<dim>-1</dim>
					<dim>1</dim>
					<dim>-1</dim>
					<dim>-1</dim>
				</port>
				<port id="1" precision="FP32" />
				<port id="2" precision="FP32">
					<dim>-1</dim>
					<dim>1</dim>
					<dim>-1</dim>
					<dim>-1</dim>
				</port>
			</input>
			<output>
				<port id="3" precision="FP32" names="325">
					<dim>-1</dim>
					<dim>1</dim>
					<dim>-1</dim>
					<dim>-1</dim>
				</port>
			</output>
		</layer>
		<layer id="254" name="__module.model/aten::copy_/ShapeOf" type="ShapeOf" version="opset3">
			<data output_type="i64" />
			<input>
				<port id="0" precision="FP32">
					<dim>-1</dim>
					<dim>1</dim>
					<dim>-1</dim>
					<dim>-1</dim>
				</port>
			</input>
			<output>
				<port id="1" precision="I64">
					<dim>4</dim>
				</port>
			</output>
		</layer>
		<layer id="255" name="__module.model/aten::copy_/Broadcast" type="Broadcast" version="opset3">
			<data mode="numpy" />
			<input>
				<port id="0" precision="FP32">
					<dim>-1</dim>
					<dim>1</dim>
					<dim>-1</dim>
					<dim>-1</dim>
				</port>
				<port id="1" precision="I64">
					<dim>4</dim>
				</port>
			</input>
			<output>
				<port id="2" precision="FP32" names="329">
					<dim>-1</dim>
					<dim>1</dim>
					<dim>-1</dim>
					<dim>-1</dim>
				</port>
			</output>
		</layer>
		<layer id="256" name="Constant_35034" type="Const" version="opset1">
			<data element_type="i64" shape="1" offset="545482276" size="8" />
			<output>
				<port id="0" precision="I64">
					<dim>1</dim>
				</port>
			</output>
		</layer>
		<layer id="257" name="SliceAssign_486/Reshape_5" type="Reshape" version="opset1">
			<data special_zero="false" />
			<input>
				<port id="0" precision="FP32">
					<dim>-1</dim>
					<dim>1</dim>
					<dim>-1</dim>
					<dim>-1</dim>
				</port>
				<port id="1" precision="I64">
					<dim>1</dim>
				</port>
			</input>
			<output>
				<port id="2" precision="FP32">
					<dim>-1</dim>
				</port>
			</output>
		</layer>
		<layer id="258" name="SliceAssign_486/ScatterNDUpdate" type="ScatterNDUpdate" version="opset4">
			<input>
				<port id="0" precision="FP32">
					<dim>-1</dim>
				</port>
				<port id="1" precision="I64">
					<dim>-1</dim>
					<dim>1</dim>
				</port>
				<port id="2" precision="FP32">
					<dim>-1</dim>
				</port>
			</input>
			<output>
				<port id="3" precision="FP32">
					<dim>-1</dim>
				</port>
			</output>
		</layer>
		<layer id="259" name="SliceAssign_486/Reshape_6" type="Reshape" version="opset1">
			<data special_zero="false" />
			<input>
				<port id="0" precision="FP32">
					<dim>-1</dim>
				</port>
				<port id="1" precision="I64">
					<dim>4</dim>
				</port>
			</input>
			<output>
				<port id="2" precision="FP32" names="1101,1102,1103,1258,1259,1260,1415,1416,1417,1572,1573,1574,1729,1730,1731,1886,1887,1888,2043,2044,2045,2200,2201,2202,2357,2358,2359,2514,2515,2516,2671,2672,2673,2828,2829,2830,2985,2986,2987,309,3142,3143,3144,3299,3300,3301,3456,3457,3458,3613,3614,3615,3770,3771,3772,3927,3928,3929,4084,4085,4086,4241,4242,4243,4398,4399,4400,4555,4556,4557,4712,4713,4714,473,474,475,630,631,632,787,788,789,944,945,946">
					<dim>-1</dim>
					<dim>1</dim>
					<dim>-1</dim>
					<dim>-1</dim>
				</port>
			</output>
		</layer>
		<layer id="260" name="Constant_1473" type="Const" version="opset1">
			<data element_type="i64" shape="1" offset="12" size="8" />
			<output>
				<port id="0" precision="I64">
					<dim>1</dim>
				</port>
			</output>
		</layer>
		<layer id="261" name="Constant_1476" type="Const" version="opset1">
			<data element_type="i64" shape="1" offset="552113000" size="8" />
			<output>
				<port id="0" precision="I64">
					<dim>1</dim>
				</port>
			</output>
		</layer>
		<layer id="262" name="__module.model.layers.0.self_attn/aten::slice/Slice_15" type="Slice" version="opset8">
			<input>
				<port id="0" precision="FP32">
					<dim>-1</dim>
					<dim>1</dim>
					<dim>-1</dim>
					<dim>-1</dim>
				</port>
				<port id="1" precision="I64">
					<dim>1</dim>
				</port>
				<port id="2" precision="I64">
					<dim>1</dim>
				</port>
				<port id="3" precision="I64">
					<dim>1</dim>
				</port>
				<port id="4" precision="I64">
					<dim>1</dim>
				</port>
			</input>
			<output>
				<port id="5" precision="FP32" names="1104,1261,1418,1575,1732,1889,2046,2203,2360,2517,2674,2831,2988,3145,3302,3459,3616,3773,3930,4087,4244,4401,4558,4715,476,633,790,947">
					<dim>-1</dim>
					<dim>1</dim>
					<dim>-1</dim>
					<dim>-1</dim>
				</port>
			</output>
		</layer>
		<layer id="263" name="__module.model.layers.0.self_attn/aten::scaled_dot_product_attention/ScaledDotProductAttention" type="ScaledDotProductAttention" version="opset13">
			<data causal="false" />
			<input>
				<port id="0" precision="FP32">
					<dim>-1</dim>
					<dim>28</dim>
					<dim>-1</dim>
					<dim>128</dim>
				</port>
				<port id="1" precision="FP32">
					<dim>-1</dim>
					<dim>28</dim>
					<dim>-1</dim>
					<dim>128</dim>
				</port>
				<port id="2" precision="FP32">
					<dim>-1</dim>
					<dim>28</dim>
					<dim>-1</dim>
					<dim>128</dim>
				</port>
				<port id="3" precision="FP32">
					<dim>-1</dim>
					<dim>1</dim>
					<dim>-1</dim>
					<dim>-1</dim>
				</port>
			</input>
			<output>
				<port id="4" precision="FP32" names="477,attn_output.1">
					<dim>-1</dim>
					<dim>28</dim>
					<dim>-1</dim>
					<dim>128</dim>
				</port>
			</output>
		</layer>
		<layer id="264" name="__module.model.layers.0.self_attn/aten::transpose/Constant_3" type="Const" version="opset1">
			<data element_type="i32" shape="4" offset="552112728" size="16" />
			<output>
				<port id="0" precision="I32">
					<dim>4</dim>
				</port>
			</output>
		</layer>
		<layer id="265" name="__module.model.layers.0.self_attn/aten::transpose/Transpose_3" type="Transpose" version="opset1">
			<input>
				<port id="0" precision="FP32">
					<dim>-1</dim>
					<dim>28</dim>
					<dim>-1</dim>
					<dim>128</dim>
				</port>
				<port id="1" precision="I32">
					<dim>4</dim>
				</port>
			</input>
			<output>
				<port id="2" precision="FP32" names="478">
					<dim>-1</dim>
					<dim>-1</dim>
					<dim>28</dim>
					<dim>128</dim>
				</port>
			</output>
		</layer>
		<layer id="266" name="Constant_60062" type="Const" version="opset1">
			<data element_type="i64" shape="3" offset="554007576" size="24" />
			<output>
				<port id="0" precision="I64">
					<dim>3</dim>
				</port>
			</output>
		</layer>
		<layer id="267" name="__module.model.layers.0.self_attn/aten::view/Reshape_3" type="Reshape" version="opset1">
			<data special_zero="true" />
			<input>
				<port id="0" precision="FP32">
					<dim>-1</dim>
					<dim>-1</dim>
					<dim>28</dim>
					<dim>128</dim>
				</port>
				<port id="1" precision="I64">
					<dim>3</dim>
				</port>
			</input>
			<output>
				<port id="2" precision="FP32" names="481">
					<dim>-1</dim>
					<dim>-1</dim>
					<dim>3584</dim>
				</port>
			</output>
		</layer>
		<layer id="268" name="self.model.layers.0.self_attn.o_proj.weight" type="Const" version="opset1">
			<data element_type="i4" shape="3584, 28, 128" offset="554007600" size="6422528" />
			<output>
				<port id="0" precision="I4">
					<dim>3584</dim>
					<dim>28</dim>
					<dim>128</dim>
				</port>
			</output>
		</layer>
		<layer id="269" name="Convert_77859" type="Convert" version="opset1">
			<data destination_type="f16" />
			<input>
				<port id="0" precision="I4">
					<dim>3584</dim>
					<dim>28</dim>
					<dim>128</dim>
				</port>
			</input>
			<output>
				<port id="1" precision="FP16">
					<dim>3584</dim>
					<dim>28</dim>
					<dim>128</dim>
				</port>
			</output>
		</layer>
		<layer id="270" name="self.model.layers.0.self_attn.o_proj.weight/scale" type="Const" version="opset1">
			<data element_type="f16" shape="3584, 28, 1" offset="560430128" size="200704" />
			<output>
				<port id="0" precision="FP16">
					<dim>3584</dim>
					<dim>28</dim>
					<dim>1</dim>
				</port>
			</output>
		</layer>
		<layer id="271" name="self.model.layers.0.self_attn.o_proj.weight/fq_weights_1" type="Multiply" version="opset1">
			<data auto_broadcast="numpy" />
			<input>
				<port id="0" precision="FP16">
					<dim>3584</dim>
					<dim>28</dim>
					<dim>128</dim>
				</port>
				<port id="1" precision="FP16">
					<dim>3584</dim>
					<dim>28</dim>
					<dim>1</dim>
				</port>
			</input>
			<output>
				<port id="2" precision="FP16">
					<dim>3584</dim>
					<dim>28</dim>
					<dim>128</dim>
				</port>
			</output>
		</layer>
		<layer id="272" name="Constant_77863" type="Const" version="opset1">
			<data element_type="i32" shape="2" offset="552105520" size="8" />
			<output>
				<port id="0" precision="I32">
					<dim>2</dim>
				</port>
			</output>
		</layer>
		<layer id="273" name="Reshape_77864" type="Reshape" version="opset1">
			<data special_zero="false" />
			<input>
				<port id="0" precision="FP16">
					<dim>3584</dim>
					<dim>28</dim>
					<dim>128</dim>
				</port>
				<port id="1" precision="I32">
					<dim>2</dim>
				</port>
			</input>
			<output>
				<port id="2" precision="FP16">
					<dim>3584</dim>
					<dim>3584</dim>
				</port>
			</output>
		</layer>
		<layer id="274" name="__module.model.layers.0.self_attn.o_proj/ov_ext::linear/ConvertLike" type="Convert" version="opset1">
			<data destination_type="f32" />
			<rt_info>
				<attribute name="decompression" version="0" />
			</rt_info>
			<input>
				<port id="0" precision="FP16">
					<dim>3584</dim>
					<dim>3584</dim>
				</port>
			</input>
			<output>
				<port id="1" precision="FP32">
					<dim>3584</dim>
					<dim>3584</dim>
				</port>
			</output>
		</layer>
		<layer id="275" name="__module.model.layers.0.self_attn.o_proj/ov_ext::linear/MatMul" type="MatMul" version="opset1">
			<data transpose_a="false" transpose_b="true" />
			<input>
				<port id="0" precision="FP32">
					<dim>-1</dim>
					<dim>-1</dim>
					<dim>3584</dim>
				</port>
				<port id="1" precision="FP32">
					<dim>3584</dim>
					<dim>3584</dim>
				</port>
			</input>
			<output>
				<port id="2" precision="FP32" names="483,485,hidden_states.17">
					<dim>-1</dim>
					<dim>-1</dim>
					<dim>3584</dim>
				</port>
			</output>
		</layer>
		<layer id="276" name="__module.model.layers.0/aten::add/Add" type="Add" version="opset1">
			<data auto_broadcast="numpy" />
			<input>
				<port id="0" precision="FP32">
					<dim>-1</dim>
					<dim>-1</dim>
					<dim>3584</dim>
				</port>
				<port id="1" precision="FP32">
					<dim>-1</dim>
					<dim>-1</dim>
					<dim>3584</dim>
				</port>
			</input>
			<output>
				<port id="2" precision="FP32" names="488,490,501,hidden_states.19,hidden_states.21">
					<dim>-1</dim>
					<dim>-1</dim>
					<dim>3584</dim>
				</port>
			</output>
		</layer>
		<layer id="277" name="Constant_51817" type="Const" version="opset1">
			<data element_type="f32" shape="1, 1, 3584" offset="560630832" size="14336" />
			<output>
				<port id="0" precision="FP32">
					<dim>1</dim>
					<dim>1</dim>
					<dim>3584</dim>
				</port>
			</output>
		</layer>
		<layer id="278" name="Constant_51816" type="Const" version="opset1">
			<data element_type="f32" shape="1, 1, 1" offset="545482268" size="4" />
			<output>
				<port id="0" precision="FP32">
					<dim>1</dim>
					<dim>1</dim>
					<dim>1</dim>
				</port>
			</output>
		</layer>
		<layer id="279" name="Constant_51814" type="Const" version="opset1">
			<data element_type="f32" shape="1, 1, 1" offset="545482272" size="4" />
			<output>
				<port id="0" precision="FP32">
					<dim>1</dim>
					<dim>1</dim>
					<dim>1</dim>
				</port>
			</output>
		</layer>
		<layer id="280" name="__module.model.layers.0.post_attention_layernorm/aten::pow/Power" type="Power" version="opset1">
			<data auto_broadcast="numpy" />
			<input>
				<port id="0" precision="FP32">
					<dim>-1</dim>
					<dim>-1</dim>
					<dim>3584</dim>
				</port>
				<port id="1" precision="FP32">
					<dim>1</dim>
					<dim>1</dim>
					<dim>1</dim>
				</port>
			</input>
			<output>
				<port id="2" precision="FP32" names="491">
					<dim>-1</dim>
					<dim>-1</dim>
					<dim>3584</dim>
				</port>
			</output>
		</layer>
		<layer id="281" name="Constant_1578" type="Const" version="opset1">
			<data element_type="i64" shape="1" offset="545482276" size="8" />
			<output>
				<port id="0" precision="I64" names="492">
					<dim>1</dim>
				</port>
			</output>
		</layer>
		<layer id="282" name="__module.model.layers.0.post_attention_layernorm/aten::mean/ReduceMean" type="ReduceMean" version="opset1">
			<data keep_dims="true" />
			<input>
				<port id="0" precision="FP32">
					<dim>-1</dim>
					<dim>-1</dim>
					<dim>3584</dim>
				</port>
				<port id="1" precision="I64">
					<dim>1</dim>
				</port>
			</input>
			<output>
				<port id="2" precision="FP32" names="493,variance.3">
					<dim>-1</dim>
					<dim>-1</dim>
					<dim>1</dim>
				</port>
			</output>
		</layer>
		<layer id="283" name="Constant_51815" type="Const" version="opset1">
			<data element_type="f32" shape="1, 1, 1" offset="545482284" size="4" />
			<output>
				<port id="0" precision="FP32">
					<dim>1</dim>
					<dim>1</dim>
					<dim>1</dim>
				</port>
			</output>
		</layer>
		<layer id="284" name="__module.model.layers.0.post_attention_layernorm/aten::add/Add" type="Add" version="opset1">
			<data auto_broadcast="numpy" />
			<input>
				<port id="0" precision="FP32">
					<dim>-1</dim>
					<dim>-1</dim>
					<dim>1</dim>
				</port>
				<port id="1" precision="FP32">
					<dim>1</dim>
					<dim>1</dim>
					<dim>1</dim>
				</port>
			</input>
			<output>
				<port id="2" precision="FP32" names="494">
					<dim>-1</dim>
					<dim>-1</dim>
					<dim>1</dim>
				</port>
			</output>
		</layer>
		<layer id="285" name="__module.model.layers.0.post_attention_layernorm/aten::rsqrt/Sqrt" type="Sqrt" version="opset1">
			<input>
				<port id="0" precision="FP32">
					<dim>-1</dim>
					<dim>-1</dim>
					<dim>1</dim>
				</port>
			</input>
			<output>
				<port id="1" precision="FP32">
					<dim>-1</dim>
					<dim>-1</dim>
					<dim>1</dim>
				</port>
			</output>
		</layer>
		<layer id="286" name="__module.model.layers.0.post_attention_layernorm/aten::rsqrt/Divide" type="Divide" version="opset1">
			<data auto_broadcast="numpy" m_pythondiv="true" />
			<input>
				<port id="0" precision="FP32">
					<dim>1</dim>
					<dim>1</dim>
					<dim>1</dim>
				</port>
				<port id="1" precision="FP32">
					<dim>-1</dim>
					<dim>-1</dim>
					<dim>1</dim>
				</port>
			</input>
			<output>
				<port id="2" precision="FP32" names="495">
					<dim>-1</dim>
					<dim>-1</dim>
					<dim>1</dim>
				</port>
			</output>
		</layer>
		<layer id="287" name="__module.model.layers.0.post_attention_layernorm/aten::mul/Multiply" type="Multiply" version="opset1">
			<data auto_broadcast="numpy" />
			<input>
				<port id="0" precision="FP32">
					<dim>-1</dim>
					<dim>-1</dim>
					<dim>3584</dim>
				</port>
				<port id="1" precision="FP32">
					<dim>-1</dim>
					<dim>-1</dim>
					<dim>1</dim>
				</port>
			</input>
			<output>
				<port id="2" precision="FP32" names="496,497,hidden_states.23,hidden_states.25">
					<dim>-1</dim>
					<dim>-1</dim>
					<dim>3584</dim>
				</port>
			</output>
		</layer>
		<layer id="288" name="__module.model.layers.0.post_attention_layernorm/aten::mul/Multiply_1" type="Multiply" version="opset1">
			<data auto_broadcast="numpy" />
			<input>
				<port id="0" precision="FP32">
					<dim>1</dim>
					<dim>1</dim>
					<dim>3584</dim>
				</port>
				<port id="1" precision="FP32">
					<dim>-1</dim>
					<dim>-1</dim>
					<dim>3584</dim>
				</port>
			</input>
			<output>
				<port id="2" precision="FP32" names="498,500">
					<dim>-1</dim>
					<dim>-1</dim>
					<dim>3584</dim>
				</port>
			</output>
		</layer>
		<layer id="289" name="self.model.layers.0.mlp.gate_proj.weight" type="Const" version="opset1">
			<data element_type="i4" shape="18944, 28, 128" offset="560645168" size="33947648" />
			<output>
				<port id="0" precision="I4">
					<dim>18944</dim>
					<dim>28</dim>
					<dim>128</dim>
				</port>
			</output>
		</layer>
		<layer id="290" name="Convert_77271" type="Convert" version="opset1">
			<data destination_type="f16" />
			<input>
				<port id="0" precision="I4">
					<dim>18944</dim>
					<dim>28</dim>
					<dim>128</dim>
				</port>
			</input>
			<output>
				<port id="1" precision="FP16">
					<dim>18944</dim>
					<dim>28</dim>
					<dim>128</dim>
				</port>
			</output>
		</layer>
		<layer id="291" name="self.model.layers.0.mlp.gate_proj.weight/scale" type="Const" version="opset1">
			<data element_type="f16" shape="18944, 28, 1" offset="594592816" size="1060864" />
			<output>
				<port id="0" precision="FP16">
					<dim>18944</dim>
					<dim>28</dim>
					<dim>1</dim>
				</port>
			</output>
		</layer>
		<layer id="292" name="self.model.layers.0.mlp.gate_proj.weight/fq_weights_1" type="Multiply" version="opset1">
			<data auto_broadcast="numpy" />
			<input>
				<port id="0" precision="FP16">
					<dim>18944</dim>
					<dim>28</dim>
					<dim>128</dim>
				</port>
				<port id="1" precision="FP16">
					<dim>18944</dim>
					<dim>28</dim>
					<dim>1</dim>
				</port>
			</input>
			<output>
				<port id="2" precision="FP16">
					<dim>18944</dim>
					<dim>28</dim>
					<dim>128</dim>
				</port>
			</output>
		</layer>
		<layer id="293" name="Constant_77275" type="Const" version="opset1">
			<data element_type="i32" shape="2" offset="595653680" size="8" />
			<output>
				<port id="0" precision="I32">
					<dim>2</dim>
				</port>
			</output>
		</layer>
		<layer id="294" name="Reshape_77276" type="Reshape" version="opset1">
			<data special_zero="false" />
			<input>
				<port id="0" precision="FP16">
					<dim>18944</dim>
					<dim>28</dim>
					<dim>128</dim>
				</port>
				<port id="1" precision="I32">
					<dim>2</dim>
				</port>
			</input>
			<output>
				<port id="2" precision="FP16">
					<dim>18944</dim>
					<dim>3584</dim>
				</port>
			</output>
		</layer>
		<layer id="295" name="__module.model.layers.0.mlp.gate_proj/ov_ext::linear/ConvertLike" type="Convert" version="opset1">
			<data destination_type="f32" />
			<rt_info>
				<attribute name="decompression" version="0" />
			</rt_info>
			<input>
				<port id="0" precision="FP16">
					<dim>18944</dim>
					<dim>3584</dim>
				</port>
			</input>
			<output>
				<port id="1" precision="FP32">
					<dim>18944</dim>
					<dim>3584</dim>
				</port>
			</output>
		</layer>
		<layer id="296" name="__module.model.layers.0.mlp.gate_proj/ov_ext::linear/MatMul" type="MatMul" version="opset1">
			<data transpose_a="false" transpose_b="true" />
			<input>
				<port id="0" precision="FP32">
					<dim>-1</dim>
					<dim>-1</dim>
					<dim>3584</dim>
				</port>
				<port id="1" precision="FP32">
					<dim>18944</dim>
					<dim>3584</dim>
				</port>
			</input>
			<output>
				<port id="2" precision="FP32" names="506,input.1">
					<dim>-1</dim>
					<dim>-1</dim>
					<dim>18944</dim>
				</port>
			</output>
		</layer>
		<layer id="297" name="__module.model.layers.0.mlp.act_fn/aten::silu/Swish" type="Swish" version="opset4">
			<input>
				<port id="0" precision="FP32">
					<dim>-1</dim>
					<dim>-1</dim>
					<dim>18944</dim>
				</port>
			</input>
			<output>
				<port id="1" precision="FP32" names="507">
					<dim>-1</dim>
					<dim>-1</dim>
					<dim>18944</dim>
				</port>
			</output>
		</layer>
		<layer id="298" name="self.model.layers.0.mlp.up_proj.weight" type="Const" version="opset1">
			<data element_type="i4" shape="18944, 28, 128" offset="595653688" size="33947648" />
			<output>
				<port id="0" precision="I4">
					<dim>18944</dim>
					<dim>28</dim>
					<dim>128</dim>
				</port>
			</output>
		</layer>
		<layer id="299" name="Convert_77264" type="Convert" version="opset1">
			<data destination_type="f16" />
			<input>
				<port id="0" precision="I4">
					<dim>18944</dim>
					<dim>28</dim>
					<dim>128</dim>
				</port>
			</input>
			<output>
				<port id="1" precision="FP16">
					<dim>18944</dim>
					<dim>28</dim>
					<dim>128</dim>
				</port>
			</output>
		</layer>
		<layer id="300" name="self.model.layers.0.mlp.up_proj.weight/scale" type="Const" version="opset1">
			<data element_type="f16" shape="18944, 28, 1" offset="629601336" size="1060864" />
			<output>
				<port id="0" precision="FP16">
					<dim>18944</dim>
					<dim>28</dim>
					<dim>1</dim>
				</port>
			</output>
		</layer>
		<layer id="301" name="self.model.layers.0.mlp.up_proj.weight/fq_weights_1" type="Multiply" version="opset1">
			<data auto_broadcast="numpy" />
			<input>
				<port id="0" precision="FP16">
					<dim>18944</dim>
					<dim>28</dim>
					<dim>128</dim>
				</port>
				<port id="1" precision="FP16">
					<dim>18944</dim>
					<dim>28</dim>
					<dim>1</dim>
				</port>
			</input>
			<output>
				<port id="2" precision="FP16">
					<dim>18944</dim>
					<dim>28</dim>
					<dim>128</dim>
				</port>
			</output>
		</layer>
		<layer id="302" name="Constant_77268" type="Const" version="opset1">
			<data element_type="i32" shape="2" offset="595653680" size="8" />
			<output>
				<port id="0" precision="I32">
					<dim>2</dim>
				</port>
			</output>
		</layer>
		<layer id="303" name="Reshape_77269" type="Reshape" version="opset1">
			<data special_zero="false" />
			<input>
				<port id="0" precision="FP16">
					<dim>18944</dim>
					<dim>28</dim>
					<dim>128</dim>
				</port>
				<port id="1" precision="I32">
					<dim>2</dim>
				</port>
			</input>
			<output>
				<port id="2" precision="FP16">
					<dim>18944</dim>
					<dim>3584</dim>
				</port>
			</output>
		</layer>
		<layer id="304" name="__module.model.layers.0.mlp.up_proj/ov_ext::linear/ConvertLike" type="Convert" version="opset1">
			<data destination_type="f32" />
			<rt_info>
				<attribute name="decompression" version="0" />
			</rt_info>
			<input>
				<port id="0" precision="FP16">
					<dim>18944</dim>
					<dim>3584</dim>
				</port>
			</input>
			<output>
				<port id="1" precision="FP32">
					<dim>18944</dim>
					<dim>3584</dim>
				</port>
			</output>
		</layer>
		<layer id="305" name="__module.model.layers.0.mlp.up_proj/ov_ext::linear/MatMul" type="MatMul" version="opset1">
			<data transpose_a="false" transpose_b="true" />
			<input>
				<port id="0" precision="FP32">
					<dim>-1</dim>
					<dim>-1</dim>
					<dim>3584</dim>
				</port>
				<port id="1" precision="FP32">
					<dim>18944</dim>
					<dim>3584</dim>
				</port>
			</input>
			<output>
				<port id="2" precision="FP32" names="509">
					<dim>-1</dim>
					<dim>-1</dim>
					<dim>18944</dim>
				</port>
			</output>
		</layer>
		<layer id="306" name="__module.model.layers.0.mlp/aten::mul/Multiply" type="Multiply" version="opset1">
			<data auto_broadcast="numpy" />
			<input>
				<port id="0" precision="FP32">
					<dim>-1</dim>
					<dim>-1</dim>
					<dim>18944</dim>
				</port>
				<port id="1" precision="FP32">
					<dim>-1</dim>
					<dim>-1</dim>
					<dim>18944</dim>
				</port>
			</input>
			<output>
				<port id="2" precision="FP32" names="510">
					<dim>-1</dim>
					<dim>-1</dim>
					<dim>18944</dim>
				</port>
			</output>
		</layer>
		<layer id="307" name="self.model.layers.0.mlp.down_proj.weight" type="Const" version="opset1">
			<data element_type="i4" shape="3584, 148, 128" offset="630662200" size="33947648" />
			<output>
				<port id="0" precision="I4">
					<dim>3584</dim>
					<dim>148</dim>
					<dim>128</dim>
				</port>
			</output>
		</layer>
		<layer id="308" name="Convert_77278" type="Convert" version="opset1">
			<data destination_type="f16" />
			<input>
				<port id="0" precision="I4">
					<dim>3584</dim>
					<dim>148</dim>
					<dim>128</dim>
				</port>
			</input>
			<output>
				<port id="1" precision="FP16">
					<dim>3584</dim>
					<dim>148</dim>
					<dim>128</dim>
				</port>
			</output>
		</layer>
		<layer id="309" name="self.model.layers.0.mlp.down_proj.weight/scale" type="Const" version="opset1">
			<data element_type="f16" shape="3584, 148, 1" offset="664609848" size="1060864" />
			<output>
				<port id="0" precision="FP16">
					<dim>3584</dim>
					<dim>148</dim>
					<dim>1</dim>
				</port>
			</output>
		</layer>
		<layer id="310" name="self.model.layers.0.mlp.down_proj.weight/fq_weights_1" type="Multiply" version="opset1">
			<data auto_broadcast="numpy" />
			<input>
				<port id="0" precision="FP16">
					<dim>3584</dim>
					<dim>148</dim>
					<dim>128</dim>
				</port>
				<port id="1" precision="FP16">
					<dim>3584</dim>
					<dim>148</dim>
					<dim>1</dim>
				</port>
			</input>
			<output>
				<port id="2" precision="FP16">
					<dim>3584</dim>
					<dim>148</dim>
					<dim>128</dim>
				</port>
			</output>
		</layer>
		<layer id="311" name="Constant_77282" type="Const" version="opset1">
			<data element_type="i32" shape="2" offset="665670712" size="8" />
			<output>
				<port id="0" precision="I32">
					<dim>2</dim>
				</port>
			</output>
		</layer>
		<layer id="312" name="Reshape_77283" type="Reshape" version="opset1">
			<data special_zero="false" />
			<input>
				<port id="0" precision="FP16">
					<dim>3584</dim>
					<dim>148</dim>
					<dim>128</dim>
				</port>
				<port id="1" precision="I32">
					<dim>2</dim>
				</port>
			</input>
			<output>
				<port id="2" precision="FP16">
					<dim>3584</dim>
					<dim>18944</dim>
				</port>
			</output>
		</layer>
		<layer id="313" name="__module.model.layers.0.mlp.down_proj/ov_ext::linear/ConvertLike" type="Convert" version="opset1">
			<data destination_type="f32" />
			<rt_info>
				<attribute name="decompression" version="0" />
			</rt_info>
			<input>
				<port id="0" precision="FP16">
					<dim>3584</dim>
					<dim>18944</dim>
				</port>
			</input>
			<output>
				<port id="1" precision="FP32">
					<dim>3584</dim>
					<dim>18944</dim>
				</port>
			</output>
		</layer>
		<layer id="314" name="__module.model.layers.0.mlp.down_proj/ov_ext::linear/MatMul" type="MatMul" version="opset1">
			<data transpose_a="false" transpose_b="true" />
			<input>
				<port id="0" precision="FP32">
					<dim>-1</dim>
					<dim>-1</dim>
					<dim>18944</dim>
				</port>
				<port id="1" precision="FP32">
					<dim>3584</dim>
					<dim>18944</dim>
				</port>
			</input>
			<output>
				<port id="2" precision="FP32" names="512,hidden_states.27">
					<dim>-1</dim>
					<dim>-1</dim>
					<dim>3584</dim>
				</port>
			</output>
		</layer>
		<layer id="315" name="__module.model.layers.0/aten::add/Add_1" type="Add" version="opset1">
			<data auto_broadcast="numpy" />
			<input>
				<port id="0" precision="FP32">
					<dim>-1</dim>
					<dim>-1</dim>
					<dim>3584</dim>
				</port>
				<port id="1" precision="FP32">
					<dim>-1</dim>
					<dim>-1</dim>
					<dim>3584</dim>
				</port>
			</input>
			<output>
				<port id="2" precision="FP32" names="513,515,523,534,hidden_states.29,hidden_states.31">
					<dim>-1</dim>
					<dim>-1</dim>
					<dim>3584</dim>
				</port>
			</output>
		</layer>
		<layer id="316" name="Constant_51821" type="Const" version="opset1">
			<data element_type="f32" shape="1, 1, 3584" offset="665670720" size="14336" />
			<output>
				<port id="0" precision="FP32">
					<dim>1</dim>
					<dim>1</dim>
					<dim>3584</dim>
				</port>
			</output>
		</layer>
		<layer id="317" name="Constant_51820" type="Const" version="opset1">
			<data element_type="f32" shape="1, 1, 1" offset="545482268" size="4" />
			<output>
				<port id="0" precision="FP32">
					<dim>1</dim>
					<dim>1</dim>
					<dim>1</dim>
				</port>
			</output>
		</layer>
		<layer id="318" name="Constant_51818" type="Const" version="opset1">
			<data element_type="f32" shape="1, 1, 1" offset="545482272" size="4" />
			<output>
				<port id="0" precision="FP32">
					<dim>1</dim>
					<dim>1</dim>
					<dim>1</dim>
				</port>
			</output>
		</layer>
		<layer id="319" name="__module.model.layers.1.input_layernorm/aten::pow/Power" type="Power" version="opset1">
			<data auto_broadcast="numpy" />
			<input>
				<port id="0" precision="FP32">
					<dim>-1</dim>
					<dim>-1</dim>
					<dim>3584</dim>
				</port>
				<port id="1" precision="FP32">
					<dim>1</dim>
					<dim>1</dim>
					<dim>1</dim>
				</port>
			</input>
			<output>
				<port id="2" precision="FP32" names="524">
					<dim>-1</dim>
					<dim>-1</dim>
					<dim>3584</dim>
				</port>
			</output>
		</layer>
		<layer id="320" name="Constant_1652" type="Const" version="opset1">
			<data element_type="i64" shape="1" offset="545482276" size="8" />
			<output>
				<port id="0" precision="I64" names="525">
					<dim>1</dim>
				</port>
			</output>
		</layer>
		<layer id="321" name="__module.model.layers.1.input_layernorm/aten::mean/ReduceMean" type="ReduceMean" version="opset1">
			<data keep_dims="true" />
			<input>
				<port id="0" precision="FP32">
					<dim>-1</dim>
					<dim>-1</dim>
					<dim>3584</dim>
				</port>
				<port id="1" precision="I64">
					<dim>1</dim>
				</port>
			</input>
			<output>
				<port id="2" precision="FP32" names="526,variance.5">
					<dim>-1</dim>
					<dim>-1</dim>
					<dim>1</dim>
				</port>
			</output>
		</layer>
		<layer id="322" name="Constant_51819" type="Const" version="opset1">
			<data element_type="f32" shape="1, 1, 1" offset="545482284" size="4" />
			<output>
				<port id="0" precision="FP32">
					<dim>1</dim>
					<dim>1</dim>
					<dim>1</dim>
				</port>
			</output>
		</layer>
		<layer id="323" name="__module.model.layers.1.input_layernorm/aten::add/Add" type="Add" version="opset1">
			<data auto_broadcast="numpy" />
			<input>
				<port id="0" precision="FP32">
					<dim>-1</dim>
					<dim>-1</dim>
					<dim>1</dim>
				</port>
				<port id="1" precision="FP32">
					<dim>1</dim>
					<dim>1</dim>
					<dim>1</dim>
				</port>
			</input>
			<output>
				<port id="2" precision="FP32" names="527">
					<dim>-1</dim>
					<dim>-1</dim>
					<dim>1</dim>
				</port>
			</output>
		</layer>
		<layer id="324" name="__module.model.layers.1.input_layernorm/aten::rsqrt/Sqrt" type="Sqrt" version="opset1">
			<input>
				<port id="0" precision="FP32">
					<dim>-1</dim>
					<dim>-1</dim>
					<dim>1</dim>
				</port>
			</input>
			<output>
				<port id="1" precision="FP32">
					<dim>-1</dim>
					<dim>-1</dim>
					<dim>1</dim>
				</port>
			</output>
		</layer>
		<layer id="325" name="__module.model.layers.1.input_layernorm/aten::rsqrt/Divide" type="Divide" version="opset1">
			<data auto_broadcast="numpy" m_pythondiv="true" />
			<input>
				<port id="0" precision="FP32">
					<dim>1</dim>
					<dim>1</dim>
					<dim>1</dim>
				</port>
				<port id="1" precision="FP32">
					<dim>-1</dim>
					<dim>-1</dim>
					<dim>1</dim>
				</port>
			</input>
			<output>
				<port id="2" precision="FP32" names="528">
					<dim>-1</dim>
					<dim>-1</dim>
					<dim>1</dim>
				</port>
			</output>
		</layer>
		<layer id="326" name="__module.model.layers.1.input_layernorm/aten::mul/Multiply" type="Multiply" version="opset1">
			<data auto_broadcast="numpy" />
			<input>
				<port id="0" precision="FP32">
					<dim>-1</dim>
					<dim>-1</dim>
					<dim>3584</dim>
				</port>
				<port id="1" precision="FP32">
					<dim>-1</dim>
					<dim>-1</dim>
					<dim>1</dim>
				</port>
			</input>
			<output>
				<port id="2" precision="FP32" names="529,530,hidden_states.33,hidden_states.35">
					<dim>-1</dim>
					<dim>-1</dim>
					<dim>3584</dim>
				</port>
			</output>
		</layer>
		<layer id="327" name="__module.model.layers.1.input_layernorm/aten::mul/Multiply_1" type="Multiply" version="opset1">
			<data auto_broadcast="numpy" />
			<input>
				<port id="0" precision="FP32">
					<dim>1</dim>
					<dim>1</dim>
					<dim>3584</dim>
				</port>
				<port id="1" precision="FP32">
					<dim>-1</dim>
					<dim>-1</dim>
					<dim>3584</dim>
				</port>
			</input>
			<output>
				<port id="2" precision="FP32" names="531,533,hidden_states.37">
					<dim>-1</dim>
					<dim>-1</dim>
					<dim>3584</dim>
				</port>
			</output>
		</layer>
		<layer id="328" name="self.model.layers.1.self_attn.q_proj.weight" type="Const" version="opset1">
			<data element_type="i4" shape="3584, 28, 128" offset="665685056" size="6422528" />
			<output>
				<port id="0" precision="I4">
					<dim>3584</dim>
					<dim>28</dim>
					<dim>128</dim>
				</port>
			</output>
		</layer>
		<layer id="329" name="Convert_77866" type="Convert" version="opset1">
			<data destination_type="f16" />
			<input>
				<port id="0" precision="I4">
					<dim>3584</dim>
					<dim>28</dim>
					<dim>128</dim>
				</port>
			</input>
			<output>
				<port id="1" precision="FP16">
					<dim>3584</dim>
					<dim>28</dim>
					<dim>128</dim>
				</port>
			</output>
		</layer>
		<layer id="330" name="self.model.layers.1.self_attn.q_proj.weight/scale" type="Const" version="opset1">
			<data element_type="f16" shape="3584, 28, 1" offset="672107584" size="200704" />
			<output>
				<port id="0" precision="FP16">
					<dim>3584</dim>
					<dim>28</dim>
					<dim>1</dim>
				</port>
			</output>
		</layer>
		<layer id="331" name="self.model.layers.1.self_attn.q_proj.weight/fq_weights_1" type="Multiply" version="opset1">
			<data auto_broadcast="numpy" />
			<input>
				<port id="0" precision="FP16">
					<dim>3584</dim>
					<dim>28</dim>
					<dim>128</dim>
				</port>
				<port id="1" precision="FP16">
					<dim>3584</dim>
					<dim>28</dim>
					<dim>1</dim>
				</port>
			</input>
			<output>
				<port id="2" precision="FP16">
					<dim>3584</dim>
					<dim>28</dim>
					<dim>128</dim>
				</port>
			</output>
		</layer>
		<layer id="332" name="Constant_77870" type="Const" version="opset1">
			<data element_type="i32" shape="2" offset="552105520" size="8" />
			<output>
				<port id="0" precision="I32">
					<dim>2</dim>
				</port>
			</output>
		</layer>
		<layer id="333" name="Reshape_77871" type="Reshape" version="opset1">
			<data special_zero="false" />
			<input>
				<port id="0" precision="FP16">
					<dim>3584</dim>
					<dim>28</dim>
					<dim>128</dim>
				</port>
				<port id="1" precision="I32">
					<dim>2</dim>
				</port>
			</input>
			<output>
				<port id="2" precision="FP16">
					<dim>3584</dim>
					<dim>3584</dim>
				</port>
			</output>
		</layer>
		<layer id="334" name="__module.model.layers.1.self_attn.q_proj/ov_ext::linear/ConvertLike" type="Convert" version="opset1">
			<data destination_type="f32" />
			<rt_info>
				<attribute name="decompression" version="0" />
			</rt_info>
			<input>
				<port id="0" precision="FP16">
					<dim>3584</dim>
					<dim>3584</dim>
				</port>
			</input>
			<output>
				<port id="1" precision="FP32">
					<dim>3584</dim>
					<dim>3584</dim>
				</port>
			</output>
		</layer>
		<layer id="335" name="__module.model.layers.1.self_attn.q_proj/ov_ext::linear/MatMul" type="MatMul" version="opset1">
			<data transpose_a="false" transpose_b="true" />
			<input>
				<port id="0" precision="FP32">
					<dim>-1</dim>
					<dim>-1</dim>
					<dim>3584</dim>
				</port>
				<port id="1" precision="FP32">
					<dim>3584</dim>
					<dim>3584</dim>
				</port>
			</input>
			<output>
				<port id="2" precision="FP32">
					<dim>-1</dim>
					<dim>-1</dim>
					<dim>3584</dim>
				</port>
			</output>
		</layer>
		<layer id="336" name="self.model.layers.1.self_attn.q_proj.bias" type="Const" version="opset1">
			<data element_type="bf16" shape="3584" offset="672308288" size="7168" />
			<output>
				<port id="0" precision="BF16" names="self.model.layers.1.self_attn.q_proj.bias">
					<dim>3584</dim>
				</port>
			</output>
		</layer>
		<layer id="337" name="__module.model.layers.1.self_attn.q_proj/ov_ext::linear/ConvertLike_1" type="Convert" version="opset1">
			<data destination_type="f32" />
			<rt_info>
				<attribute name="decompression" version="0" />
			</rt_info>
			<input>
				<port id="0" precision="BF16">
					<dim>3584</dim>
				</port>
			</input>
			<output>
				<port id="1" precision="FP32">
					<dim>3584</dim>
				</port>
			</output>
		</layer>
		<layer id="338" name="__module.model.layers.1.self_attn.q_proj/ov_ext::linear/Add" type="Add" version="opset1">
			<data auto_broadcast="numpy" />
			<input>
				<port id="0" precision="FP32">
					<dim>-1</dim>
					<dim>-1</dim>
					<dim>3584</dim>
				</port>
				<port id="1" precision="FP32">
					<dim>3584</dim>
				</port>
			</input>
			<output>
				<port id="2" precision="FP32" names="543,query_states.3">
					<dim>-1</dim>
					<dim>-1</dim>
					<dim>3584</dim>
				</port>
			</output>
		</layer>
		<layer id="339" name="Constant_60063" type="Const" version="opset1">
			<data element_type="i64" shape="4" offset="552112696" size="32" />
			<output>
				<port id="0" precision="I64">
					<dim>4</dim>
				</port>
			</output>
		</layer>
		<layer id="340" name="__module.model.layers.1.self_attn/aten::view/Reshape" type="Reshape" version="opset1">
			<data special_zero="true" />
			<input>
				<port id="0" precision="FP32">
					<dim>-1</dim>
					<dim>-1</dim>
					<dim>3584</dim>
				</port>
				<port id="1" precision="I64">
					<dim>4</dim>
				</port>
			</input>
			<output>
				<port id="2" precision="FP32" names="551">
					<dim>-1</dim>
					<dim>-1</dim>
					<dim>28</dim>
					<dim>128</dim>
				</port>
			</output>
		</layer>
		<layer id="341" name="__module.model.layers.1.self_attn/aten::transpose/Constant" type="Const" version="opset1">
			<data element_type="i32" shape="4" offset="552112728" size="16" />
			<output>
				<port id="0" precision="I32">
					<dim>4</dim>
				</port>
			</output>
		</layer>
		<layer id="342" name="__module.model.layers.1.self_attn/aten::transpose/Transpose" type="Transpose" version="opset1">
			<input>
				<port id="0" precision="FP32">
					<dim>-1</dim>
					<dim>-1</dim>
					<dim>28</dim>
					<dim>128</dim>
				</port>
				<port id="1" precision="I32">
					<dim>4</dim>
				</port>
			</input>
			<output>
				<port id="2" precision="FP32" names="552,q.3">
					<dim>-1</dim>
					<dim>28</dim>
					<dim>-1</dim>
					<dim>128</dim>
				</port>
			</output>
		</layer>
		<layer id="343" name="__module.model.layers.1.self_attn/aten::mul/Multiply" type="Multiply" version="opset1">
			<data auto_broadcast="numpy" />
			<input>
				<port id="0" precision="FP32">
					<dim>-1</dim>
					<dim>28</dim>
					<dim>-1</dim>
					<dim>128</dim>
				</port>
				<port id="1" precision="FP32">
					<dim>-1</dim>
					<dim>1</dim>
					<dim>-1</dim>
					<dim>128</dim>
				</port>
			</input>
			<output>
				<port id="2" precision="FP32" names="561">
					<dim>-1</dim>
					<dim>28</dim>
					<dim>-1</dim>
					<dim>128</dim>
				</port>
			</output>
		</layer>
		<layer id="344" name="Constant_2061" type="Const" version="opset1">
			<data element_type="i64" shape="1" offset="552113020" size="8" />
			<output>
				<port id="0" precision="I64">
					<dim>1</dim>
				</port>
			</output>
		</layer>
		<layer id="345" name="Constant_2063" type="Const" version="opset1">
			<data element_type="i64" shape="1" offset="552113028" size="8" />
			<output>
				<port id="0" precision="I64">
					<dim>1</dim>
				</port>
			</output>
		</layer>
		<layer id="346" name="Constant_2065" type="Const" version="opset1">
			<data element_type="i64" shape="1" offset="552113000" size="8" />
			<output>
				<port id="0" precision="I64">
					<dim>1</dim>
				</port>
			</output>
		</layer>
		<layer id="347" name="__module.model.layers.1.self_attn/aten::slice/Slice" type="Slice" version="opset8">
			<input>
				<port id="0" precision="FP32">
					<dim>-1</dim>
					<dim>28</dim>
					<dim>-1</dim>
					<dim>128</dim>
				</port>
				<port id="1" precision="I64">
					<dim>1</dim>
				</port>
				<port id="2" precision="I64">
					<dim>1</dim>
				</port>
				<port id="3" precision="I64">
					<dim>1</dim>
				</port>
				<port id="4" precision="I64">
					<dim>1</dim>
				</port>
			</input>
			<output>
				<port id="5" precision="FP32" names="571,x2.5">
					<dim>-1</dim>
					<dim>28</dim>
					<dim>-1</dim>
					<dim>64</dim>
				</port>
			</output>
		</layer>
		<layer id="348" name="Constant_51822" type="Const" version="opset1">
			<data element_type="f32" shape="1, 1, 1, 1" offset="552113044" size="4" />
			<output>
				<port id="0" precision="FP32">
					<dim>1</dim>
					<dim>1</dim>
					<dim>1</dim>
					<dim>1</dim>
				</port>
			</output>
		</layer>
		<layer id="349" name="__module.model.layers.1.self_attn/aten::neg/Multiply" type="Multiply" version="opset1">
			<data auto_broadcast="numpy" />
			<input>
				<port id="0" precision="FP32">
					<dim>-1</dim>
					<dim>28</dim>
					<dim>-1</dim>
					<dim>64</dim>
				</port>
				<port id="1" precision="FP32">
					<dim>1</dim>
					<dim>1</dim>
					<dim>1</dim>
					<dim>1</dim>
				</port>
			</input>
			<output>
				<port id="2" precision="FP32" names="572">
					<dim>-1</dim>
					<dim>28</dim>
					<dim>-1</dim>
					<dim>64</dim>
				</port>
			</output>
		</layer>
		<layer id="350" name="Constant_1958" type="Const" version="opset1">
			<data element_type="i64" shape="1" offset="12" size="8" />
			<output>
				<port id="0" precision="I64">
					<dim>1</dim>
				</port>
			</output>
		</layer>
		<layer id="351" name="Constant_2002" type="Const" version="opset1">
			<data element_type="i64" shape="1" offset="552113020" size="8" />
			<output>
				<port id="0" precision="I64">
					<dim>1</dim>
				</port>
			</output>
		</layer>
		<layer id="352" name="Constant_2004" type="Const" version="opset1">
			<data element_type="i64" shape="1" offset="552113000" size="8" />
			<output>
				<port id="0" precision="I64">
					<dim>1</dim>
				</port>
			</output>
		</layer>
		<layer id="353" name="__module.model.layers.1.self_attn/aten::slice/Slice_1" type="Slice" version="opset8">
			<input>
				<port id="0" precision="FP32">
					<dim>-1</dim>
					<dim>28</dim>
					<dim>-1</dim>
					<dim>128</dim>
				</port>
				<port id="1" precision="I64">
					<dim>1</dim>
				</port>
				<port id="2" precision="I64">
					<dim>1</dim>
				</port>
				<port id="3" precision="I64">
					<dim>1</dim>
				</port>
				<port id="4" precision="I64">
					<dim>1</dim>
				</port>
			</input>
			<output>
				<port id="5" precision="FP32" names="566">
					<dim>-1</dim>
					<dim>28</dim>
					<dim>-1</dim>
					<dim>64</dim>
				</port>
			</output>
		</layer>
		<layer id="354" name="__module.model.layers.1.self_attn/aten::cat/Concat" type="Concat" version="opset1">
			<data axis="-1" />
			<input>
				<port id="0" precision="FP32">
					<dim>-1</dim>
					<dim>28</dim>
					<dim>-1</dim>
					<dim>64</dim>
				</port>
				<port id="1" precision="FP32">
					<dim>-1</dim>
					<dim>28</dim>
					<dim>-1</dim>
					<dim>64</dim>
				</port>
			</input>
			<output>
				<port id="2" precision="FP32" names="574">
					<dim>-1</dim>
					<dim>28</dim>
					<dim>-1</dim>
					<dim>128</dim>
				</port>
			</output>
		</layer>
		<layer id="355" name="__module.model.layers.1.self_attn/aten::mul/Multiply_1" type="Multiply" version="opset1">
			<data auto_broadcast="numpy" />
			<input>
				<port id="0" precision="FP32">
					<dim>-1</dim>
					<dim>28</dim>
					<dim>-1</dim>
					<dim>128</dim>
				</port>
				<port id="1" precision="FP32">
					<dim>-1</dim>
					<dim>1</dim>
					<dim>-1</dim>
					<dim>128</dim>
				</port>
			</input>
			<output>
				<port id="2" precision="FP32" names="575">
					<dim>-1</dim>
					<dim>28</dim>
					<dim>-1</dim>
					<dim>128</dim>
				</port>
			</output>
		</layer>
		<layer id="356" name="__module.model.layers.1.self_attn/aten::add/Add" type="Add" version="opset1">
			<data auto_broadcast="numpy" />
			<input>
				<port id="0" precision="FP32">
					<dim>-1</dim>
					<dim>28</dim>
					<dim>-1</dim>
					<dim>128</dim>
				</port>
				<port id="1" precision="FP32">
					<dim>-1</dim>
					<dim>28</dim>
					<dim>-1</dim>
					<dim>128</dim>
				</port>
			</input>
			<output>
				<port id="2" precision="FP32" names="576">
					<dim>-1</dim>
					<dim>28</dim>
					<dim>-1</dim>
					<dim>128</dim>
				</port>
			</output>
		</layer>
		<layer id="357" name="Constant_62676" type="Const" version="opset1">
			<data element_type="f32" shape="" offset="0" size="4" />
			<output>
				<port id="0" precision="FP32" />
			</output>
		</layer>
		<layer id="358" name="Constant_62669" type="Const" version="opset1">
			<data element_type="i64" shape="1" offset="4" size="8" />
			<output>
				<port id="0" precision="I64">
					<dim>1</dim>
				</port>
			</output>
		</layer>
		<layer id="359" name="Constant_62671" type="Const" version="opset1">
			<data element_type="i64" shape="1" offset="12" size="8" />
			<output>
				<port id="0" precision="I64">
					<dim>1</dim>
				</port>
			</output>
		</layer>
		<layer id="360" name="Constant_62673" type="Const" version="opset1">
			<data element_type="i64" shape="1" offset="20" size="8" />
			<output>
				<port id="0" precision="I64">
					<dim>1</dim>
				</port>
			</output>
		</layer>
		<layer id="361" name="Concat_62674" type="Concat" version="opset1">
			<data axis="0" />
			<input>
				<port id="0" precision="I64">
					<dim>1</dim>
				</port>
				<port id="1" precision="I64">
					<dim>1</dim>
				</port>
				<port id="2" precision="I64">
					<dim>1</dim>
				</port>
				<port id="3" precision="I64">
					<dim>1</dim>
				</port>
			</input>
			<output>
				<port id="4" precision="I64">
					<dim>4</dim>
				</port>
			</output>
		</layer>
		<layer id="362" name="Broadcast_62677" type="Broadcast" version="opset3">
			<data mode="numpy" />
			<input>
				<port id="0" precision="FP32" />
				<port id="1" precision="I64">
					<dim>4</dim>
				</port>
			</input>
			<output>
				<port id="2" precision="FP32">
					<dim>-1</dim>
					<dim>4</dim>
					<dim>0</dim>
					<dim>128</dim>
				</port>
			</output>
		</layer>
		<layer id="363" name="ReadValue_62108" type="ReadValue" version="opset6">
			<data variable_id="past_key_values.1.keypresent.1.key" variable_type="f32" variable_shape="?,4,?,128" />
			<input>
				<port id="0" precision="FP32">
					<dim>-1</dim>
					<dim>4</dim>
					<dim>0</dim>
					<dim>128</dim>
				</port>
			</input>
			<output>
				<port id="1" precision="FP32" names="past_key_values.1.key">
					<dim>-1</dim>
					<dim>4</dim>
					<dim>-1</dim>
					<dim>128</dim>
				</port>
			</output>
		</layer>
		<layer id="364" name="Constant_61545" type="Const" version="opset1">
			<data element_type="i32" shape="" offset="0" size="4" />
			<output>
				<port id="0" precision="I32" />
			</output>
		</layer>
		<layer id="365" name="Gather_61546" type="Gather" version="opset8">
			<data batch_dims="0" />
			<input>
				<port id="0" precision="FP32">
					<dim>-1</dim>
					<dim>4</dim>
					<dim>-1</dim>
					<dim>128</dim>
				</port>
				<port id="1" precision="I32">
					<dim>-1</dim>
				</port>
				<port id="2" precision="I32" />
			</input>
			<output>
				<port id="3" precision="FP32">
					<dim>-1</dim>
					<dim>4</dim>
					<dim>-1</dim>
					<dim>128</dim>
				</port>
			</output>
		</layer>
		<layer id="366" name="self.model.layers.1.self_attn.k_proj.weight" type="Const" version="opset1">
			<data element_type="i4" shape="512, 28, 128" offset="672315456" size="917504" />
			<output>
				<port id="0" precision="I4">
					<dim>512</dim>
					<dim>28</dim>
					<dim>128</dim>
				</port>
			</output>
		</layer>
		<layer id="367" name="Convert_78265" type="Convert" version="opset1">
			<data destination_type="f16" />
			<input>
				<port id="0" precision="I4">
					<dim>512</dim>
					<dim>28</dim>
					<dim>128</dim>
				</port>
			</input>
			<output>
				<port id="1" precision="FP16">
					<dim>512</dim>
					<dim>28</dim>
					<dim>128</dim>
				</port>
			</output>
		</layer>
		<layer id="368" name="self.model.layers.1.self_attn.k_proj.weight/scale" type="Const" version="opset1">
			<data element_type="f16" shape="512, 28, 1" offset="673232960" size="28672" />
			<output>
				<port id="0" precision="FP16">
					<dim>512</dim>
					<dim>28</dim>
					<dim>1</dim>
				</port>
			</output>
		</layer>
		<layer id="369" name="self.model.layers.1.self_attn.k_proj.weight/fq_weights_1" type="Multiply" version="opset1">
			<data auto_broadcast="numpy" />
			<input>
				<port id="0" precision="FP16">
					<dim>512</dim>
					<dim>28</dim>
					<dim>128</dim>
				</port>
				<port id="1" precision="FP16">
					<dim>512</dim>
					<dim>28</dim>
					<dim>1</dim>
				</port>
			</input>
			<output>
				<port id="2" precision="FP16">
					<dim>512</dim>
					<dim>28</dim>
					<dim>128</dim>
				</port>
			</output>
		</layer>
		<layer id="370" name="Constant_78269" type="Const" version="opset1">
			<data element_type="i32" shape="2" offset="553059224" size="8" />
			<output>
				<port id="0" precision="I32">
					<dim>2</dim>
				</port>
			</output>
		</layer>
		<layer id="371" name="Reshape_78270" type="Reshape" version="opset1">
			<data special_zero="false" />
			<input>
				<port id="0" precision="FP16">
					<dim>512</dim>
					<dim>28</dim>
					<dim>128</dim>
				</port>
				<port id="1" precision="I32">
					<dim>2</dim>
				</port>
			</input>
			<output>
				<port id="2" precision="FP16">
					<dim>512</dim>
					<dim>3584</dim>
				</port>
			</output>
		</layer>
		<layer id="372" name="__module.model.layers.1.self_attn.k_proj/ov_ext::linear/ConvertLike" type="Convert" version="opset1">
			<data destination_type="f32" />
			<rt_info>
				<attribute name="decompression" version="0" />
			</rt_info>
			<input>
				<port id="0" precision="FP16">
					<dim>512</dim>
					<dim>3584</dim>
				</port>
			</input>
			<output>
				<port id="1" precision="FP32">
					<dim>512</dim>
					<dim>3584</dim>
				</port>
			</output>
		</layer>
		<layer id="373" name="__module.model.layers.1.self_attn.k_proj/ov_ext::linear/MatMul" type="MatMul" version="opset1">
			<data transpose_a="false" transpose_b="true" />
			<input>
				<port id="0" precision="FP32">
					<dim>-1</dim>
					<dim>-1</dim>
					<dim>3584</dim>
				</port>
				<port id="1" precision="FP32">
					<dim>512</dim>
					<dim>3584</dim>
				</port>
			</input>
			<output>
				<port id="2" precision="FP32">
					<dim>-1</dim>
					<dim>-1</dim>
					<dim>512</dim>
				</port>
			</output>
		</layer>
		<layer id="374" name="self.model.layers.1.self_attn.k_proj.bias" type="Const" version="opset1">
			<data element_type="bf16" shape="512" offset="673261632" size="1024" />
			<output>
				<port id="0" precision="BF16" names="self.model.layers.1.self_attn.k_proj.bias">
					<dim>512</dim>
				</port>
			</output>
		</layer>
		<layer id="375" name="__module.model.layers.1.self_attn.k_proj/ov_ext::linear/ConvertLike_1" type="Convert" version="opset1">
			<data destination_type="f32" />
			<rt_info>
				<attribute name="decompression" version="0" />
			</rt_info>
			<input>
				<port id="0" precision="BF16">
					<dim>512</dim>
				</port>
			</input>
			<output>
				<port id="1" precision="FP32">
					<dim>512</dim>
				</port>
			</output>
		</layer>
		<layer id="376" name="__module.model.layers.1.self_attn.k_proj/ov_ext::linear/Add" type="Add" version="opset1">
			<data auto_broadcast="numpy" />
			<input>
				<port id="0" precision="FP32">
					<dim>-1</dim>
					<dim>-1</dim>
					<dim>512</dim>
				</port>
				<port id="1" precision="FP32">
					<dim>512</dim>
				</port>
			</input>
			<output>
				<port id="2" precision="FP32" names="546,key_states.9">
					<dim>-1</dim>
					<dim>-1</dim>
					<dim>512</dim>
				</port>
			</output>
		</layer>
		<layer id="377" name="Constant_60064" type="Const" version="opset1">
			<data element_type="i64" shape="4" offset="553060256" size="32" />
			<output>
				<port id="0" precision="I64">
					<dim>4</dim>
				</port>
			</output>
		</layer>
		<layer id="378" name="__module.model.layers.1.self_attn/aten::view/Reshape_1" type="Reshape" version="opset1">
			<data special_zero="true" />
			<input>
				<port id="0" precision="FP32">
					<dim>-1</dim>
					<dim>-1</dim>
					<dim>512</dim>
				</port>
				<port id="1" precision="I64">
					<dim>4</dim>
				</port>
			</input>
			<output>
				<port id="2" precision="FP32" names="554">
					<dim>-1</dim>
					<dim>-1</dim>
					<dim>4</dim>
					<dim>128</dim>
				</port>
			</output>
		</layer>
		<layer id="379" name="__module.model.layers.1.self_attn/aten::transpose/Constant_1" type="Const" version="opset1">
			<data element_type="i32" shape="4" offset="552112728" size="16" />
			<output>
				<port id="0" precision="I32">
					<dim>4</dim>
				</port>
			</output>
		</layer>
		<layer id="380" name="__module.model.layers.1.self_attn/aten::transpose/Transpose_1" type="Transpose" version="opset1">
			<input>
				<port id="0" precision="FP32">
					<dim>-1</dim>
					<dim>-1</dim>
					<dim>4</dim>
					<dim>128</dim>
				</port>
				<port id="1" precision="I32">
					<dim>4</dim>
				</port>
			</input>
			<output>
				<port id="2" precision="FP32" names="555,k.3">
					<dim>-1</dim>
					<dim>4</dim>
					<dim>-1</dim>
					<dim>128</dim>
				</port>
			</output>
		</layer>
		<layer id="381" name="__module.model.layers.1.self_attn/aten::mul/Multiply_2" type="Multiply" version="opset1">
			<data auto_broadcast="numpy" />
			<input>
				<port id="0" precision="FP32">
					<dim>-1</dim>
					<dim>4</dim>
					<dim>-1</dim>
					<dim>128</dim>
				</port>
				<port id="1" precision="FP32">
					<dim>-1</dim>
					<dim>1</dim>
					<dim>-1</dim>
					<dim>128</dim>
				</port>
			</input>
			<output>
				<port id="2" precision="FP32" names="577">
					<dim>-1</dim>
					<dim>4</dim>
					<dim>-1</dim>
					<dim>128</dim>
				</port>
			</output>
		</layer>
		<layer id="382" name="Constant_2204" type="Const" version="opset1">
			<data element_type="i64" shape="1" offset="552113020" size="8" />
			<output>
				<port id="0" precision="I64">
					<dim>1</dim>
				</port>
			</output>
		</layer>
		<layer id="383" name="Constant_2206" type="Const" version="opset1">
			<data element_type="i64" shape="1" offset="552113028" size="8" />
			<output>
				<port id="0" precision="I64">
					<dim>1</dim>
				</port>
			</output>
		</layer>
		<layer id="384" name="Constant_2208" type="Const" version="opset1">
			<data element_type="i64" shape="1" offset="552113000" size="8" />
			<output>
				<port id="0" precision="I64">
					<dim>1</dim>
				</port>
			</output>
		</layer>
		<layer id="385" name="__module.model.layers.1.self_attn/aten::slice/Slice_2" type="Slice" version="opset8">
			<input>
				<port id="0" precision="FP32">
					<dim>-1</dim>
					<dim>4</dim>
					<dim>-1</dim>
					<dim>128</dim>
				</port>
				<port id="1" precision="I64">
					<dim>1</dim>
				</port>
				<port id="2" precision="I64">
					<dim>1</dim>
				</port>
				<port id="3" precision="I64">
					<dim>1</dim>
				</port>
				<port id="4" precision="I64">
					<dim>1</dim>
				</port>
			</input>
			<output>
				<port id="5" precision="FP32" names="587,x2.7">
					<dim>-1</dim>
					<dim>4</dim>
					<dim>-1</dim>
					<dim>64</dim>
				</port>
			</output>
		</layer>
		<layer id="386" name="Constant_51823" type="Const" version="opset1">
			<data element_type="f32" shape="1, 1, 1, 1" offset="552113044" size="4" />
			<output>
				<port id="0" precision="FP32">
					<dim>1</dim>
					<dim>1</dim>
					<dim>1</dim>
					<dim>1</dim>
				</port>
			</output>
		</layer>
		<layer id="387" name="__module.model.layers.1.self_attn/aten::neg/Multiply_1" type="Multiply" version="opset1">
			<data auto_broadcast="numpy" />
			<input>
				<port id="0" precision="FP32">
					<dim>-1</dim>
					<dim>4</dim>
					<dim>-1</dim>
					<dim>64</dim>
				</port>
				<port id="1" precision="FP32">
					<dim>1</dim>
					<dim>1</dim>
					<dim>1</dim>
					<dim>1</dim>
				</port>
			</input>
			<output>
				<port id="2" precision="FP32" names="588">
					<dim>-1</dim>
					<dim>4</dim>
					<dim>-1</dim>
					<dim>64</dim>
				</port>
			</output>
		</layer>
		<layer id="388" name="Constant_2101" type="Const" version="opset1">
			<data element_type="i64" shape="1" offset="12" size="8" />
			<output>
				<port id="0" precision="I64">
					<dim>1</dim>
				</port>
			</output>
		</layer>
…
		<edge from-layer="4187" from-port="2" to-layer="4188" to-port="1" />
		<edge from-layer="4188" from-port="2" to-layer="4261" to-port="0" />
		<edge from-layer="4189" from-port="0" to-layer="4194" to-port="0" />
		<edge from-layer="4190" from-port="0" to-layer="4193" to-port="1" />
		<edge from-layer="4191" from-port="0" to-layer="4193" to-port="2" />
		<edge from-layer="4192" from-port="0" to-layer="4193" to-port="3" />
		<edge from-layer="4193" from-port="4" to-layer="4194" to-port="1" />
		<edge from-layer="4194" from-port="2" to-layer="4195" to-port="0" />
		<edge from-layer="4195" from-port="1" to-layer="4197" to-port="0" />
		<edge from-layer="4196" from-port="0" to-layer="4197" to-port="2" />
		<edge from-layer="4197" from-port="3" to-layer="4227" to-port="0" />
		<edge from-layer="4198" from-port="0" to-layer="4199" to-port="0" />
		<edge from-layer="4199" from-port="1" to-layer="4201" to-port="0" />
		<edge from-layer="4200" from-port="0" to-layer="4201" to-port="1" />
		<edge from-layer="4201" from-port="2" to-layer="4203" to-port="0" />
		<edge from-layer="4202" from-port="0" to-layer="4203" to-port="1" />
		<edge from-layer="4203" from-port="2" to-layer="4204" to-port="0" />
		<edge from-layer="4204" from-port="1" to-layer="4205" to-port="1" />
		<edge from-layer="4205" from-port="2" to-layer="4208" to-port="0" />
		<edge from-layer="4206" from-port="0" to-layer="4207" to-port="0" />
		<edge from-layer="4207" from-port="1" to-layer="4208" to-port="1" />
		<edge from-layer="4208" from-port="2" to-layer="4210" to-port="0" />
		<edge from-layer="4209" from-port="0" to-layer="4210" to-port="1" />
		<edge from-layer="4210" from-port="2" to-layer="4212" to-port="0" />
		<edge from-layer="4211" from-port="0" to-layer="4212" to-port="1" />
		<edge from-layer="4212" from-port="2" to-layer="4213" to-port="0" />
		<edge from-layer="4212" from-port="2" to-layer="4217" to-port="0" />
		<edge from-layer="4212" from-port="2" to-layer="4223" to-port="0" />
		<edge from-layer="4213" from-port="2" to-layer="4226" to-port="0" />
		<edge from-layer="4214" from-port="0" to-layer="4217" to-port="1" />
		<edge from-layer="4215" from-port="0" to-layer="4217" to-port="2" />
		<edge from-layer="4216" from-port="0" to-layer="4217" to-port="3" />
		<edge from-layer="4217" from-port="5" to-layer="4219" to-port="0" />
		<edge from-layer="4218" from-port="0" to-layer="4219" to-port="1" />
		<edge from-layer="4219" from-port="2" to-layer="4224" to-port="0" />
		<edge from-layer="4220" from-port="0" to-layer="4223" to-port="1" />
		<edge from-layer="4221" from-port="0" to-layer="4223" to-port="2" />
		<edge from-layer="4222" from-port="0" to-layer="4223" to-port="3" />
		<edge from-layer="4223" from-port="5" to-layer="4224" to-port="1" />
		<edge from-layer="4224" from-port="2" to-layer="4225" to-port="0" />
		<edge from-layer="4225" from-port="2" to-layer="4226" to-port="1" />
		<edge from-layer="4226" from-port="2" to-layer="4227" to-port="1" />
		<edge from-layer="4227" from-port="2" to-layer="4228" to-port="0" />
		<edge from-layer="4227" from-port="2" to-layer="4719" to-port="0" />
		<edge from-layer="4228" from-port="2" to-layer="4229" to-port="0" />
		<edge from-layer="4229" from-port="2" to-layer="4231" to-port="0" />
		<edge from-layer="4230" from-port="0" to-layer="4231" to-port="1" />
		<edge from-layer="4231" from-port="2" to-layer="4261" to-port="1" />
		<edge from-layer="4232" from-port="0" to-layer="4237" to-port="0" />
		<edge from-layer="4233" from-port="0" to-layer="4236" to-port="1" />
		<edge from-layer="4234" from-port="0" to-layer="4236" to-port="2" />
		<edge from-layer="4235" from-port="0" to-layer="4236" to-port="3" />
		<edge from-layer="4236" from-port="4" to-layer="4237" to-port="1" />
		<edge from-layer="4237" from-port="2" to-layer="4238" to-port="0" />
		<edge from-layer="4238" from-port="1" to-layer="4240" to-port="0" />
		<edge from-layer="4239" from-port="0" to-layer="4240" to-port="2" />
		<edge from-layer="4240" from-port="3" to-layer="4256" to-port="0" />
		<edge from-layer="4241" from-port="0" to-layer="4242" to-port="0" />
		<edge from-layer="4242" from-port="1" to-layer="4244" to-port="0" />
		<edge from-layer="4243" from-port="0" to-layer="4244" to-port="1" />
		<edge from-layer="4244" from-port="2" to-layer="4246" to-port="0" />
		<edge from-layer="4245" from-port="0" to-layer="4246" to-port="1" />
		<edge from-layer="4246" from-port="2" to-layer="4247" to-port="0" />
		<edge from-layer="4247" from-port="1" to-layer="4248" to-port="1" />
		<edge from-layer="4248" from-port="2" to-layer="4251" to-port="0" />
		<edge from-layer="4249" from-port="0" to-layer="4250" to-port="0" />
		<edge from-layer="4250" from-port="1" to-layer="4251" to-port="1" />
		<edge from-layer="4251" from-port="2" to-layer="4253" to-port="0" />
		<edge from-layer="4252" from-port="0" to-layer="4253" to-port="1" />
		<edge from-layer="4253" from-port="2" to-layer="4255" to-port="0" />
		<edge from-layer="4254" from-port="0" to-layer="4255" to-port="1" />
		<edge from-layer="4255" from-port="2" to-layer="4256" to-port="1" />
		<edge from-layer="4256" from-port="2" to-layer="4718" to-port="0" />
		<edge from-layer="4256" from-port="2" to-layer="4257" to-port="0" />
		<edge from-layer="4257" from-port="2" to-layer="4258" to-port="0" />
		<edge from-layer="4258" from-port="2" to-layer="4260" to-port="0" />
		<edge from-layer="4259" from-port="0" to-layer="4260" to-port="1" />
		<edge from-layer="4260" from-port="2" to-layer="4261" to-port="2" />
		<edge from-layer="4261" from-port="4" to-layer="4263" to-port="0" />
		<edge from-layer="4262" from-port="0" to-layer="4263" to-port="1" />
		<edge from-layer="4263" from-port="2" to-layer="4265" to-port="0" />
		<edge from-layer="4264" from-port="0" to-layer="4265" to-port="1" />
		<edge from-layer="4265" from-port="2" to-layer="4273" to-port="0" />
		<edge from-layer="4266" from-port="0" to-layer="4267" to-port="0" />
		<edge from-layer="4267" from-port="1" to-layer="4269" to-port="0" />
		<edge from-layer="4268" from-port="0" to-layer="4269" to-port="1" />
		<edge from-layer="4269" from-port="2" to-layer="4271" to-port="0" />
		<edge from-layer="4270" from-port="0" to-layer="4271" to-port="1" />
		<edge from-layer="4271" from-port="2" to-layer="4272" to-port="0" />
		<edge from-layer="4272" from-port="1" to-layer="4273" to-port="1" />
		<edge from-layer="4273" from-port="2" to-layer="4274" to-port="1" />
		<edge from-layer="4274" from-port="2" to-layer="4278" to-port="0" />
		<edge from-layer="4274" from-port="2" to-layer="4313" to-port="0" />
		<edge from-layer="4274" from-port="2" to-layer="4285" to-port="0" />
		<edge from-layer="4275" from-port="0" to-layer="4286" to-port="0" />
		<edge from-layer="4276" from-port="0" to-layer="4284" to-port="0" />
		<edge from-layer="4277" from-port="0" to-layer="4278" to-port="1" />
		<edge from-layer="4278" from-port="2" to-layer="4280" to-port="0" />
		<edge from-layer="4279" from-port="0" to-layer="4280" to-port="1" />
		<edge from-layer="4280" from-port="2" to-layer="4282" to-port="0" />
		<edge from-layer="4281" from-port="0" to-layer="4282" to-port="1" />
		<edge from-layer="4282" from-port="2" to-layer="4283" to-port="0" />
		<edge from-layer="4283" from-port="1" to-layer="4284" to-port="1" />
		<edge from-layer="4284" from-port="2" to-layer="4285" to-port="1" />
		<edge from-layer="4285" from-port="2" to-layer="4286" to-port="1" />
		<edge from-layer="4286" from-port="2" to-layer="4303" to-port="0" />
		<edge from-layer="4286" from-port="2" to-layer="4294" to-port="0" />
		<edge from-layer="4287" from-port="0" to-layer="4288" to-port="0" />
		<edge from-layer="4288" from-port="1" to-layer="4290" to-port="0" />
		<edge from-layer="4289" from-port="0" to-layer="4290" to-port="1" />
		<edge from-layer="4290" from-port="2" to-layer="4292" to-port="0" />
		<edge from-layer="4291" from-port="0" to-layer="4292" to-port="1" />
		<edge from-layer="4292" from-port="2" to-layer="4293" to-port="0" />
		<edge from-layer="4293" from-port="1" to-layer="4294" to-port="1" />
		<edge from-layer="4294" from-port="2" to-layer="4295" to-port="0" />
		<edge from-layer="4295" from-port="1" to-layer="4304" to-port="0" />
		<edge from-layer="4296" from-port="0" to-layer="4297" to-port="0" />
		<edge from-layer="4297" from-port="1" to-layer="4299" to-port="0" />
		<edge from-layer="4298" from-port="0" to-layer="4299" to-port="1" />
		<edge from-layer="4299" from-port="2" to-layer="4301" to-port="0" />
		<edge from-layer="4300" from-port="0" to-layer="4301" to-port="1" />
		<edge from-layer="4301" from-port="2" to-layer="4302" to-port="0" />
		<edge from-layer="4302" from-port="1" to-layer="4303" to-port="1" />
		<edge from-layer="4303" from-port="2" to-layer="4304" to-port="1" />
		<edge from-layer="4304" from-port="2" to-layer="4312" to-port="0" />
		<edge from-layer="4305" from-port="0" to-layer="4306" to-port="0" />
		<edge from-layer="4306" from-port="1" to-layer="4308" to-port="0" />
		<edge from-layer="4307" from-port="0" to-layer="4308" to-port="1" />
		<edge from-layer="4308" from-port="2" to-layer="4310" to-port="0" />
		<edge from-layer="4309" from-port="0" to-layer="4310" to-port="1" />
		<edge from-layer="4310" from-port="2" to-layer="4311" to-port="0" />
		<edge from-layer="4311" from-port="1" to-layer="4312" to-port="1" />
		<edge from-layer="4312" from-port="2" to-layer="4313" to-port="1" />
		<edge from-layer="4313" from-port="2" to-layer="4324" to-port="0" />
		<edge from-layer="4313" from-port="2" to-layer="4317" to-port="0" />
		<edge from-layer="4313" from-port="2" to-layer="4440" to-port="0" />
		<edge from-layer="4314" from-port="0" to-layer="4325" to-port="0" />
		<edge from-layer="4315" from-port="0" to-layer="4323" to-port="0" />
		<edge from-layer="4316" from-port="0" to-layer="4317" to-port="1" />
		<edge from-layer="4317" from-port="2" to-layer="4319" to-port="0" />
		<edge from-layer="4318" from-port="0" to-layer="4319" to-port="1" />
		<edge from-layer="4319" from-port="2" to-layer="4321" to-port="0" />
		<edge from-layer="4320" from-port="0" to-layer="4321" to-port="1" />
		<edge from-layer="4321" from-port="2" to-layer="4322" to-port="0" />
		<edge from-layer="4322" from-port="1" to-layer="4323" to-port="1" />
		<edge from-layer="4323" from-port="2" to-layer="4324" to-port="1" />
		<edge from-layer="4324" from-port="2" to-layer="4325" to-port="1" />
		<edge from-layer="4325" from-port="2" to-layer="4414" to-port="0" />
		<edge from-layer="4325" from-port="2" to-layer="4333" to-port="0" />
		<edge from-layer="4325" from-port="2" to-layer="4371" to-port="0" />
		<edge from-layer="4326" from-port="0" to-layer="4327" to-port="0" />
		<edge from-layer="4327" from-port="1" to-layer="4329" to-port="0" />
		<edge from-layer="4328" from-port="0" to-layer="4329" to-port="1" />
		<edge from-layer="4329" from-port="2" to-layer="4331" to-port="0" />
		<edge from-layer="4330" from-port="0" to-layer="4331" to-port="1" />
		<edge from-layer="4331" from-port="2" to-layer="4332" to-port="0" />
		<edge from-layer="4332" from-port="1" to-layer="4333" to-port="1" />
		<edge from-layer="4333" from-port="2" to-layer="4336" to-port="0" />
		<edge from-layer="4334" from-port="0" to-layer="4335" to-port="0" />
		<edge from-layer="4335" from-port="1" to-layer="4336" to-port="1" />
		<edge from-layer="4336" from-port="2" to-layer="4338" to-port="0" />
		<edge from-layer="4337" from-port="0" to-layer="4338" to-port="1" />
		<edge from-layer="4338" from-port="2" to-layer="4340" to-port="0" />
		<edge from-layer="4339" from-port="0" to-layer="4340" to-port="1" />
		<edge from-layer="4340" from-port="2" to-layer="4341" to-port="0" />
		<edge from-layer="4340" from-port="2" to-layer="4345" to-port="0" />
		<edge from-layer="4340" from-port="2" to-layer="4351" to-port="0" />
		<edge from-layer="4341" from-port="2" to-layer="4354" to-port="0" />
		<edge from-layer="4342" from-port="0" to-layer="4345" to-port="1" />
		<edge from-layer="4343" from-port="0" to-layer="4345" to-port="2" />
		<edge from-layer="4344" from-port="0" to-layer="4345" to-port="3" />
		<edge from-layer="4345" from-port="5" to-layer="4347" to-port="0" />
		<edge from-layer="4346" from-port="0" to-layer="4347" to-port="1" />
		<edge from-layer="4347" from-port="2" to-layer="4352" to-port="0" />
		<edge from-layer="4348" from-port="0" to-layer="4351" to-port="1" />
		<edge from-layer="4349" from-port="0" to-layer="4351" to-port="2" />
		<edge from-layer="4350" from-port="0" to-layer="4351" to-port="3" />
		<edge from-layer="4351" from-port="5" to-layer="4352" to-port="1" />
		<edge from-layer="4352" from-port="2" to-layer="4353" to-port="0" />
		<edge from-layer="4353" from-port="2" to-layer="4354" to-port="1" />
		<edge from-layer="4354" from-port="2" to-layer="4427" to-port="0" />
		<edge from-layer="4355" from-port="0" to-layer="4360" to-port="0" />
		<edge from-layer="4356" from-port="0" to-layer="4359" to-port="1" />
		<edge from-layer="4357" from-port="0" to-layer="4359" to-port="2" />
		<edge from-layer="4358" from-port="0" to-layer="4359" to-port="3" />
		<edge from-layer="4359" from-port="4" to-layer="4360" to-port="1" />
		<edge from-layer="4360" from-port="2" to-layer="4361" to-port="0" />
		<edge from-layer="4361" from-port="1" to-layer="4363" to-port="0" />
		<edge from-layer="4362" from-port="0" to-layer="4363" to-port="2" />
		<edge from-layer="4363" from-port="3" to-layer="4393" to-port="0" />
		<edge from-layer="4364" from-port="0" to-layer="4365" to-port="0" />
		<edge from-layer="4365" from-port="1" to-layer="4367" to-port="0" />
		<edge from-layer="4366" from-port="0" to-layer="4367" to-port="1" />
		<edge from-layer="4367" from-port="2" to-layer="4369" to-port="0" />
		<edge from-layer="4368" from-port="0" to-layer="4369" to-port="1" />
		<edge from-layer="4369" from-port="2" to-layer="4370" to-port="0" />
		<edge from-layer="4370" from-port="1" to-layer="4371" to-port="1" />
		<edge from-layer="4371" from-port="2" to-layer="4374" to-port="0" />
		<edge from-layer="4372" from-port="0" to-layer="4373" to-port="0" />
		<edge from-layer="4373" from-port="1" to-layer="4374" to-port="1" />
		<edge from-layer="4374" from-port="2" to-layer="4376" to-port="0" />
		<edge from-layer="4375" from-port="0" to-layer="4376" to-port="1" />
		<edge from-layer="4376" from-port="2" to-layer="4378" to-port="0" />
		<edge from-layer="4377" from-port="0" to-layer="4378" to-port="1" />
		<edge from-layer="4378" from-port="2" to-layer="4379" to-port="0" />
		<edge from-layer="4378" from-port="2" to-layer="4383" to-port="0" />
		<edge from-layer="4378" from-port="2" to-layer="4389" to-port="0" />
		<edge from-layer="4379" from-port="2" to-layer="4392" to-port="0" />
		<edge from-layer="4380" from-port="0" to-layer="4383" to-port="1" />
		<edge from-layer="4381" from-port="0" to-layer="4383" to-port="2" />
		<edge from-layer="4382" from-port="0" to-layer="4383" to-port="3" />
		<edge from-layer="4383" from-port="5" to-layer="4385" to-port="0" />
		<edge from-layer="4384" from-port="0" to-layer="4385" to-port="1" />
		<edge from-layer="4385" from-port="2" to-layer="4390" to-port="0" />
		<edge from-layer="4386" from-port="0" to-layer="4389" to-port="1" />
		<edge from-layer="4387" from-port="0" to-layer="4389" to-port="2" />
		<edge from-layer="4388" from-port="0" to-layer="4389" to-port="3" />
		<edge from-layer="4389" from-port="5" to-layer="4390" to-port="1" />
		<edge from-layer="4390" from-port="2" to-layer="4391" to-port="0" />
		<edge from-layer="4391" from-port="2" to-layer="4392" to-port="1" />
		<edge from-layer="4392" from-port="2" to-layer="4393" to-port="1" />
		<edge from-layer="4393" from-port="2" to-layer="4394" to-port="0" />
		<edge from-layer="4393" from-port="2" to-layer="4717" to-port="0" />
		<edge from-layer="4394" from-port="2" to-layer="4395" to-port="0" />
		<edge from-layer="4395" from-port="2" to-layer="4397" to-port="0" />
		<edge from-layer="4396" from-port="0" to-layer="4397" to-port="1" />
		<edge from-layer="4397" from-port="2" to-layer="4427" to-port="1" />
		<edge from-layer="4398" from-port="0" to-layer="4403" to-port="0" />
		<edge from-layer="4399" from-port="0" to-layer="4402" to-port="1" />
		<edge from-layer="4400" from-port="0" to-layer="4402" to-port="2" />
		<edge from-layer="4401" from-port="0" to-layer="4402" to-port="3" />
		<edge from-layer="4402" from-port="4" to-layer="4403" to-port="1" />
		<edge from-layer="4403" from-port="2" to-layer="4404" to-port="0" />
		<edge from-layer="4404" from-port="1" to-layer="4406" to-port="0" />
		<edge from-layer="4405" from-port="0" to-layer="4406" to-port="2" />
		<edge from-layer="4406" from-port="3" to-layer="4422" to-port="0" />
		<edge from-layer="4407" from-port="0" to-layer="4408" to-port="0" />
		<edge from-layer="4408" from-port="1" to-layer="4410" to-port="0" />
		<edge from-layer="4409" from-port="0" to-layer="4410" to-port="1" />
		<edge from-layer="4410" from-port="2" to-layer="4412" to-port="0" />
		<edge from-layer="4411" from-port="0" to-layer="4412" to-port="1" />
		<edge from-layer="4412" from-port="2" to-layer="4413" to-port="0" />
		<edge from-layer="4413" from-port="1" to-layer="4414" to-port="1" />
		<edge from-layer="4414" from-port="2" to-layer="4417" to-port="0" />
		<edge from-layer="4415" from-port="0" to-layer="4416" to-port="0" />
		<edge from-layer="4416" from-port="1" to-layer="4417" to-port="1" />
		<edge from-layer="4417" from-port="2" to-layer="4419" to-port="0" />
		<edge from-layer="4418" from-port="0" to-layer="4419" to-port="1" />
		<edge from-layer="4419" from-port="2" to-layer="4421" to-port="0" />
		<edge from-layer="4420" from-port="0" to-layer="4421" to-port="1" />
		<edge from-layer="4421" from-port="2" to-layer="4422" to-port="1" />
		<edge from-layer="4422" from-port="2" to-layer="4423" to-port="0" />
		<edge from-layer="4422" from-port="2" to-layer="4716" to-port="0" />
		<edge from-layer="4423" from-port="2" to-layer="4424" to-port="0" />
		<edge from-layer="4424" from-port="2" to-layer="4426" to-port="0" />
		<edge from-layer="4425" from-port="0" to-layer="4426" to-port="1" />
		<edge from-layer="4426" from-port="2" to-layer="4427" to-port="2" />
		<edge from-layer="4427" from-port="4" to-layer="4429" to-port="0" />
		<edge from-layer="4428" from-port="0" to-layer="4429" to-port="1" />
		<edge from-layer="4429" from-port="2" to-layer="4431" to-port="0" />
		<edge from-layer="4430" from-port="0" to-layer="4431" to-port="1" />
		<edge from-layer="4431" from-port="2" to-layer="4439" to-port="0" />
		<edge from-layer="4432" from-port="0" to-layer="4433" to-port="0" />
		<edge from-layer="4433" from-port="1" to-layer="4435" to-port="0" />
		<edge from-layer="4434" from-port="0" to-layer="4435" to-port="1" />
		<edge from-layer="4435" from-port="2" to-layer="4437" to-port="0" />
		<edge from-layer="4436" from-port="0" to-layer="4437" to-port="1" />
		<edge from-layer="4437" from-port="2" to-layer="4438" to-port="0" />
		<edge from-layer="4438" from-port="1" to-layer="4439" to-port="1" />
		<edge from-layer="4439" from-port="2" to-layer="4440" to-port="1" />
		<edge from-layer="4440" from-port="2" to-layer="4479" to-port="0" />
		<edge from-layer="4440" from-port="2" to-layer="4451" to-port="0" />
		<edge from-layer="4440" from-port="2" to-layer="4444" to-port="0" />
		<edge from-layer="4441" from-port="0" to-layer="4452" to-port="0" />
		<edge from-layer="4442" from-port="0" to-layer="4450" to-port="0" />
		<edge from-layer="4443" from-port="0" to-layer="4444" to-port="1" />
		<edge from-layer="4444" from-port="2" to-layer="4446" to-port="0" />
		<edge from-layer="4445" from-port="0" to-layer="4446" to-port="1" />
		<edge from-layer="4446" from-port="2" to-layer="4448" to-port="0" />
		<edge from-layer="4447" from-port="0" to-layer="4448" to-port="1" />
		<edge from-layer="4448" from-port="2" to-layer="4449" to-port="0" />
		<edge from-layer="4449" from-port="1" to-layer="4450" to-port="1" />
		<edge from-layer="4450" from-port="2" to-layer="4451" to-port="1" />
		<edge from-layer="4451" from-port="2" to-layer="4452" to-port="1" />
		<edge from-layer="4452" from-port="2" to-layer="4469" to-port="0" />
		<edge from-layer="4452" from-port="2" to-layer="4460" to-port="0" />
		<edge from-layer="4453" from-port="0" to-layer="4454" to-port="0" />
		<edge from-layer="4454" from-port="1" to-layer="4456" to-port="0" />
		<edge from-layer="4455" from-port="0" to-layer="4456" to-port="1" />
		<edge from-layer="4456" from-port="2" to-layer="4458" to-port="0" />
		<edge from-layer="4457" from-port="0" to-layer="4458" to-port="1" />
		<edge from-layer="4458" from-port="2" to-layer="4459" to-port="0" />
		<edge from-layer="4459" from-port="1" to-layer="4460" to-port="1" />
		<edge from-layer="4460" from-port="2" to-layer="4461" to-port="0" />
		<edge from-layer="4461" from-port="1" to-layer="4470" to-port="0" />
		<edge from-layer="4462" from-port="0" to-layer="4463" to-port="0" />
		<edge from-layer="4463" from-port="1" to-layer="4465" to-port="0" />
		<edge from-layer="4464" from-port="0" to-layer="4465" to-port="1" />
		<edge from-layer="4465" from-port="2" to-layer="4467" to-port="0" />
		<edge from-layer="4466" from-port="0" to-layer="4467" to-port="1" />
		<edge from-layer="4467" from-port="2" to-layer="4468" to-port="0" />
		<edge from-layer="4468" from-port="1" to-layer="4469" to-port="1" />
		<edge from-layer="4469" from-port="2" to-layer="4470" to-port="1" />
		<edge from-layer="4470" from-port="2" to-layer="4478" to-port="0" />
		<edge from-layer="4471" from-port="0" to-layer="4472" to-port="0" />
		<edge from-layer="4472" from-port="1" to-layer="4474" to-port="0" />
		<edge from-layer="4473" from-port="0" to-layer="4474" to-port="1" />
		<edge from-layer="4474" from-port="2" to-layer="4476" to-port="0" />
		<edge from-layer="4475" from-port="0" to-layer="4476" to-port="1" />
		<edge from-layer="4476" from-port="2" to-layer="4477" to-port="0" />
		<edge from-layer="4477" from-port="1" to-layer="4478" to-port="1" />
		<edge from-layer="4478" from-port="2" to-layer="4479" to-port="1" />
		<edge from-layer="4479" from-port="2" to-layer="4483" to-port="0" />
		<edge from-layer="4479" from-port="2" to-layer="4490" to-port="0" />
		<edge from-layer="4479" from-port="2" to-layer="4606" to-port="0" />
		<edge from-layer="4480" from-port="0" to-layer="4491" to-port="0" />
		<edge from-layer="4481" from-port="0" to-layer="4489" to-port="0" />
		<edge from-layer="4482" from-port="0" to-layer="4483" to-port="1" />
		<edge from-layer="4483" from-port="2" to-layer="4485" to-port="0" />
		<edge from-layer="4484" from-port="0" to-layer="4485" to-port="1" />
		<edge from-layer="4485" from-port="2" to-layer="4487" to-port="0" />
		<edge from-layer="4486" from-port="0" to-layer="4487" to-port="1" />
		<edge from-layer="4487" from-port="2" to-layer="4488" to-port="0" />
		<edge from-layer="4488" from-port="1" to-layer="4489" to-port="1" />
		<edge from-layer="4489" from-port="2" to-layer="4490" to-port="1" />
		<edge from-layer="4490" from-port="2" to-layer="4491" to-port="1" />
		<edge from-layer="4491" from-port="2" to-layer="4537" to-port="0" />
		<edge from-layer="4491" from-port="2" to-layer="4499" to-port="0" />
		<edge from-layer="4491" from-port="2" to-layer="4580" to-port="0" />
		<edge from-layer="4492" from-port="0" to-layer="4493" to-port="0" />
		<edge from-layer="4493" from-port="1" to-layer="4495" to-port="0" />
		<edge from-layer="4494" from-port="0" to-layer="4495" to-port="1" />
		<edge from-layer="4495" from-port="2" to-layer="4497" to-port="0" />
		<edge from-layer="4496" from-port="0" to-layer="4497" to-port="1" />
		<edge from-layer="4497" from-port="2" to-layer="4498" to-port="0" />
		<edge from-layer="4498" from-port="1" to-layer="4499" to-port="1" />
		<edge from-layer="4499" from-port="2" to-layer="4502" to-port="0" />
		<edge from-layer="4500" from-port="0" to-layer="4501" to-port="0" />
		<edge from-layer="4501" from-port="1" to-layer="4502" to-port="1" />
		<edge from-layer="4502" from-port="2" to-layer="4504" to-port="0" />
		<edge from-layer="4503" from-port="0" to-layer="4504" to-port="1" />
		<edge from-layer="4504" from-port="2" to-layer="4506" to-port="0" />
		<edge from-layer="4505" from-port="0" to-layer="4506" to-port="1" />
		<edge from-layer="4506" from-port="2" to-layer="4507" to-port="0" />
		<edge from-layer="4506" from-port="2" to-layer="4511" to-port="0" />
		<edge from-layer="4506" from-port="2" to-layer="4517" to-port="0" />
		<edge from-layer="4507" from-port="2" to-layer="4520" to-port="0" />
		<edge from-layer="4508" from-port="0" to-layer="4511" to-port="1" />
		<edge from-layer="4509" from-port="0" to-layer="4511" to-port="2" />
		<edge from-layer="4510" from-port="0" to-layer="4511" to-port="3" />
		<edge from-layer="4511" from-port="5" to-layer="4513" to-port="0" />
		<edge from-layer="4512" from-port="0" to-layer="4513" to-port="1" />
		<edge from-layer="4513" from-port="2" to-layer="4518" to-port="0" />
		<edge from-layer="4514" from-port="0" to-layer="4517" to-port="1" />
		<edge from-layer="4515" from-port="0" to-layer="4517" to-port="2" />
		<edge from-layer="4516" from-port="0" to-layer="4517" to-port="3" />
		<edge from-layer="4517" from-port="5" to-layer="4518" to-port="1" />
		<edge from-layer="4518" from-port="2" to-layer="4519" to-port="0" />
		<edge from-layer="4519" from-port="2" to-layer="4520" to-port="1" />
		<edge from-layer="4520" from-port="2" to-layer="4593" to-port="0" />
		<edge from-layer="4521" from-port="0" to-layer="4526" to-port="0" />
		<edge from-layer="4522" from-port="0" to-layer="4525" to-port="1" />
		<edge from-layer="4523" from-port="0" to-layer="4525" to-port="2" />
		<edge from-layer="4524" from-port="0" to-layer="4525" to-port="3" />
		<edge from-layer="4525" from-port="4" to-layer="4526" to-port="1" />
		<edge from-layer="4526" from-port="2" to-layer="4527" to-port="0" />
		<edge from-layer="4527" from-port="1" to-layer="4529" to-port="0" />
		<edge from-layer="4528" from-port="0" to-layer="4529" to-port="2" />
		<edge from-layer="4529" from-port="3" to-layer="4559" to-port="0" />
		<edge from-layer="4530" from-port="0" to-layer="4531" to-port="0" />
		<edge from-layer="4531" from-port="1" to-layer="4533" to-port="0" />
		<edge from-layer="4532" from-port="0" to-layer="4533" to-port="1" />
		<edge from-layer="4533" from-port="2" to-layer="4535" to-port="0" />
		<edge from-layer="4534" from-port="0" to-layer="4535" to-port="1" />
		<edge from-layer="4535" from-port="2" to-layer="4536" to-port="0" />
		<edge from-layer="4536" from-port="1" to-layer="4537" to-port="1" />
		<edge from-layer="4537" from-port="2" to-layer="4540" to-port="0" />
		<edge from-layer="4538" from-port="0" to-layer="4539" to-port="0" />
		<edge from-layer="4539" from-port="1" to-layer="4540" to-port="1" />
		<edge from-layer="4540" from-port="2" to-layer="4542" to-port="0" />
		<edge from-layer="4541" from-port="0" to-layer="4542" to-port="1" />
		<edge from-layer="4542" from-port="2" to-layer="4544" to-port="0" />
		<edge from-layer="4543" from-port="0" to-layer="4544" to-port="1" />
		<edge from-layer="4544" from-port="2" to-layer="4549" to-port="0" />
		<edge from-layer="4544" from-port="2" to-layer="4545" to-port="0" />
		<edge from-layer="4544" from-port="2" to-layer="4555" to-port="0" />
		<edge from-layer="4545" from-port="2" to-layer="4558" to-port="0" />
		<edge from-layer="4546" from-port="0" to-layer="4549" to-port="1" />
		<edge from-layer="4547" from-port="0" to-layer="4549" to-port="2" />
		<edge from-layer="4548" from-port="0" to-layer="4549" to-port="3" />
		<edge from-layer="4549" from-port="5" to-layer="4551" to-port="0" />
		<edge from-layer="4550" from-port="0" to-layer="4551" to-port="1" />
		<edge from-layer="4551" from-port="2" to-layer="4556" to-port="0" />
		<edge from-layer="4552" from-port="0" to-layer="4555" to-port="1" />
		<edge from-layer="4553" from-port="0" to-layer="4555" to-port="2" />
		<edge from-layer="4554" from-port="0" to-layer="4555" to-port="3" />
		<edge from-layer="4555" from-port="5" to-layer="4556" to-port="1" />
		<edge from-layer="4556" from-port="2" to-layer="4557" to-port="0" />
		<edge from-layer="4557" from-port="2" to-layer="4558" to-port="1" />
		<edge from-layer="4558" from-port="2" to-layer="4559" to-port="1" />
		<edge from-layer="4559" from-port="2" to-layer="4715" to-port="0" />
		<edge from-layer="4559" from-port="2" to-layer="4560" to-port="0" />
		<edge from-layer="4560" from-port="2" to-layer="4561" to-port="0" />
		<edge from-layer="4561" from-port="2" to-layer="4563" to-port="0" />
		<edge from-layer="4562" from-port="0" to-layer="4563" to-port="1" />
		<edge from-layer="4563" from-port="2" to-layer="4593" to-port="1" />
		<edge from-layer="4564" from-port="0" to-layer="4569" to-port="0" />
		<edge from-layer="4565" from-port="0" to-layer="4568" to-port="1" />
		<edge from-layer="4566" from-port="0" to-layer="4568" to-port="2" />
		<edge from-layer="4567" from-port="0" to-layer="4568" to-port="3" />
		<edge from-layer="4568" from-port="4" to-layer="4569" to-port="1" />
		<edge from-layer="4569" from-port="2" to-layer="4570" to-port="0" />
		<edge from-layer="4570" from-port="1" to-layer="4572" to-port="0" />
		<edge from-layer="4571" from-port="0" to-layer="4572" to-port="2" />
		<edge from-layer="4572" from-port="3" to-layer="4588" to-port="0" />
		<edge from-layer="4573" from-port="0" to-layer="4574" to-port="0" />
		<edge from-layer="4574" from-port="1" to-layer="4576" to-port="0" />
		<edge from-layer="4575" from-port="0" to-layer="4576" to-port="1" />
		<edge from-layer="4576" from-port="2" to-layer="4578" to-port="0" />
		<edge from-layer="4577" from-port="0" to-layer="4578" to-port="1" />
		<edge from-layer="4578" from-port="2" to-layer="4579" to-port="0" />
		<edge from-layer="4579" from-port="1" to-layer="4580" to-port="1" />
		<edge from-layer="4580" from-port="2" to-layer="4583" to-port="0" />
		<edge from-layer="4581" from-port="0" to-layer="4582" to-port="0" />
		<edge from-layer="4582" from-port="1" to-layer="4583" to-port="1" />
		<edge from-layer="4583" from-port="2" to-layer="4585" to-port="0" />
		<edge from-layer="4584" from-port="0" to-layer="4585" to-port="1" />
		<edge from-layer="4585" from-port="2" to-layer="4587" to-port="0" />
		<edge from-layer="4586" from-port="0" to-layer="4587" to-port="1" />
		<edge from-layer="4587" from-port="2" to-layer="4588" to-port="1" />
		<edge from-layer="4588" from-port="2" to-layer="4589" to-port="0" />
		<edge from-layer="4588" from-port="2" to-layer="4714" to-port="0" />
		<edge from-layer="4589" from-port="2" to-layer="4590" to-port="0" />
		<edge from-layer="4590" from-port="2" to-layer="4592" to-port="0" />
		<edge from-layer="4591" from-port="0" to-layer="4592" to-port="1" />
		<edge from-layer="4592" from-port="2" to-layer="4593" to-port="2" />
		<edge from-layer="4593" from-port="4" to-layer="4595" to-port="0" />
		<edge from-layer="4594" from-port="0" to-layer="4595" to-port="1" />
		<edge from-layer="4595" from-port="2" to-layer="4597" to-port="0" />
		<edge from-layer="4596" from-port="0" to-layer="4597" to-port="1" />
		<edge from-layer="4597" from-port="2" to-layer="4605" to-port="0" />
		<edge from-layer="4598" from-port="0" to-layer="4599" to-port="0" />
		<edge from-layer="4599" from-port="1" to-layer="4601" to-port="0" />
		<edge from-layer="4600" from-port="0" to-layer="4601" to-port="1" />
		<edge from-layer="4601" from-port="2" to-layer="4603" to-port="0" />
		<edge from-layer="4602" from-port="0" to-layer="4603" to-port="1" />
		<edge from-layer="4603" from-port="2" to-layer="4604" to-port="0" />
		<edge from-layer="4604" from-port="1" to-layer="4605" to-port="1" />
		<edge from-layer="4605" from-port="2" to-layer="4606" to-port="1" />
		<edge from-layer="4606" from-port="2" to-layer="4645" to-port="0" />
		<edge from-layer="4606" from-port="2" to-layer="4610" to-port="0" />
		<edge from-layer="4606" from-port="2" to-layer="4617" to-port="0" />
		<edge from-layer="4607" from-port="0" to-layer="4618" to-port="0" />
		<edge from-layer="4608" from-port="0" to-layer="4616" to-port="0" />
		<edge from-layer="4609" from-port="0" to-layer="4610" to-port="1" />
		<edge from-layer="4610" from-port="2" to-layer="4612" to-port="0" />
		<edge from-layer="4611" from-port="0" to-layer="4612" to-port="1" />
		<edge from-layer="4612" from-port="2" to-layer="4614" to-port="0" />
		<edge from-layer="4613" from-port="0" to-layer="4614" to-port="1" />
		<edge from-layer="4614" from-port="2" to-layer="4615" to-port="0" />
		<edge from-layer="4615" from-port="1" to-layer="4616" to-port="1" />
		<edge from-layer="4616" from-port="2" to-layer="4617" to-port="1" />
		<edge from-layer="4617" from-port="2" to-layer="4618" to-port="1" />
		<edge from-layer="4618" from-port="2" to-layer="4626" to-port="0" />
		<edge from-layer="4618" from-port="2" to-layer="4635" to-port="0" />
		<edge from-layer="4619" from-port="0" to-layer="4620" to-port="0" />
		<edge from-layer="4620" from-port="1" to-layer="4622" to-port="0" />
		<edge from-layer="4621" from-port="0" to-layer="4622" to-port="1" />
		<edge from-layer="4622" from-port="2" to-layer="4624" to-port="0" />
		<edge from-layer="4623" from-port="0" to-layer="4624" to-port="1" />
		<edge from-layer="4624" from-port="2" to-layer="4625" to-port="0" />
		<edge from-layer="4625" from-port="1" to-layer="4626" to-port="1" />
		<edge from-layer="4626" from-port="2" to-layer="4627" to-port="0" />
		<edge from-layer="4627" from-port="1" to-layer="4636" to-port="0" />
		<edge from-layer="4628" from-port="0" to-layer="4629" to-port="0" />
		<edge from-layer="4629" from-port="1" to-layer="4631" to-port="0" />
		<edge from-layer="4630" from-port="0" to-layer="4631" to-port="1" />
		<edge from-layer="4631" from-port="2" to-layer="4633" to-port="0" />
		<edge from-layer="4632" from-port="0" to-layer="4633" to-port="1" />
		<edge from-layer="4633" from-port="2" to-layer="4634" to-port="0" />
		<edge from-layer="4634" from-port="1" to-layer="4635" to-port="1" />
		<edge from-layer="4635" from-port="2" to-layer="4636" to-port="1" />
		<edge from-layer="4636" from-port="2" to-layer="4644" to-port="0" />
		<edge from-layer="4637" from-port="0" to-layer="4638" to-port="0" />
		<edge from-layer="4638" from-port="1" to-layer="4640" to-port="0" />
		<edge from-layer="4639" from-port="0" to-layer="4640" to-port="1" />
		<edge from-layer="4640" from-port="2" to-layer="4642" to-port="0" />
		<edge from-layer="4641" from-port="0" to-layer="4642" to-port="1" />
		<edge from-layer="4642" from-port="2" to-layer="4643" to-port="0" />
		<edge from-layer="4643" from-port="1" to-layer="4644" to-port="1" />
		<edge from-layer="4644" from-port="2" to-layer="4645" to-port="1" />
		<edge from-layer="4645" from-port="2" to-layer="4648" to-port="0" />
		<edge from-layer="4645" from-port="2" to-layer="4655" to-port="0" />
		<edge from-layer="4645" from-port="2" to-layer="4805" to-port="0" />
		<edge from-layer="4646" from-port="0" to-layer="4654" to-port="0" />
		<edge from-layer="4647" from-port="0" to-layer="4648" to-port="1" />
		<edge from-layer="4648" from-port="2" to-layer="4650" to-port="0" />
		<edge from-layer="4649" from-port="0" to-layer="4650" to-port="1" />
		<edge from-layer="4650" from-port="2" to-layer="4652" to-port="0" />
		<edge from-layer="4651" from-port="0" to-layer="4652" to-port="1" />
		<edge from-layer="4652" from-port="2" to-layer="4653" to-port="0" />
		<edge from-layer="4653" from-port="1" to-layer="4654" to-port="1" />
		<edge from-layer="4654" from-port="2" to-layer="4655" to-port="1" />
		<edge from-layer="4655" from-port="2" to-layer="4656" to-port="1" />
		<edge from-layer="4656" from-port="2" to-layer="4690" to-port="0" />
		<edge from-layer="4656" from-port="2" to-layer="4664" to-port="0" />
		<edge from-layer="4656" from-port="2" to-layer="4762" to-port="0" />
		<edge from-layer="4657" from-port="0" to-layer="4658" to-port="0" />
		<edge from-layer="4658" from-port="1" to-layer="4660" to-port="0" />
		<edge from-layer="4659" from-port="0" to-layer="4660" to-port="1" />
		<edge from-layer="4660" from-port="2" to-layer="4662" to-port="0" />
		<edge from-layer="4661" from-port="0" to-layer="4662" to-port="1" />
		<edge from-layer="4662" from-port="2" to-layer="4663" to-port="0" />
		<edge from-layer="4663" from-port="1" to-layer="4664" to-port="1" />
		<edge from-layer="4664" from-port="2" to-layer="4667" to-port="0" />
		<edge from-layer="4665" from-port="0" to-layer="4666" to-port="0" />
		<edge from-layer="4666" from-port="1" to-layer="4667" to-port="1" />
		<edge from-layer="4667" from-port="2" to-layer="4669" to-port="0" />
		<edge from-layer="4668" from-port="0" to-layer="4669" to-port="1" />
		<edge from-layer="4669" from-port="2" to-layer="4671" to-port="0" />
		<edge from-layer="4670" from-port="0" to-layer="4671" to-port="1" />
		<edge from-layer="4671" from-port="2" to-layer="4672" to-port="1" />
		<edge from-layer="4672" from-port="2" to-layer="4788" to-port="0" />
		<edge from-layer="4672" from-port="2" to-layer="4673" to-port="0" />
		<edge from-layer="4674" from-port="0" to-layer="4679" to-port="0" />
		<edge from-layer="4675" from-port="0" to-layer="4678" to-port="1" />
		<edge from-layer="4676" from-port="0" to-layer="4678" to-port="2" />
		<edge from-layer="4677" from-port="0" to-layer="4678" to-port="3" />
		<edge from-layer="4678" from-port="4" to-layer="4679" to-port="1" />
		<edge from-layer="4679" from-port="2" to-layer="4680" to-port="0" />
		<edge from-layer="4680" from-port="1" to-layer="4682" to-port="0" />
		<edge from-layer="4681" from-port="0" to-layer="4682" to-port="2" />
		<edge from-layer="4682" from-port="3" to-layer="4712" to-port="0" />
		<edge from-layer="4683" from-port="0" to-layer="4684" to-port="0" />
		<edge from-layer="4684" from-port="1" to-layer="4686" to-port="0" />
		<edge from-layer="4685" from-port="0" to-layer="4686" to-port="1" />
		<edge from-layer="4686" from-port="2" to-layer="4688" to-port="0" />
		<edge from-layer="4687" from-port="0" to-layer="4688" to-port="1" />
		<edge from-layer="4688" from-port="2" to-layer="4689" to-port="0" />
		<edge from-layer="4689" from-port="1" to-layer="4690" to-port="1" />
		<edge from-layer="4690" from-port="2" to-layer="4693" to-port="0" />
		<edge from-layer="4691" from-port="0" to-layer="4692" to-port="0" />
		<edge from-layer="4692" from-port="1" to-layer="4693" to-port="1" />
		<edge from-layer="4693" from-port="2" to-layer="4695" to-port="0" />
		<edge from-layer="4694" from-port="0" to-layer="4695" to-port="1" />
		<edge from-layer="4695" from-port="2" to-layer="4697" to-port="0" />
		<edge from-layer="4696" from-port="0" to-layer="4697" to-port="1" />
		<edge from-layer="4697" from-port="2" to-layer="4698" to-port="0" />
		<edge from-layer="4697" from-port="2" to-layer="4708" to-port="0" />
		<edge from-layer="4697" from-port="2" to-layer="4702" to-port="0" />
		<edge from-layer="4698" from-port="2" to-layer="4711" to-port="0" />
		<edge from-layer="4699" from-port="0" to-layer="4702" to-port="1" />
		<edge from-layer="4700" from-port="0" to-layer="4702" to-port="2" />
		<edge from-layer="4701" from-port="0" to-layer="4702" to-port="3" />
		<edge from-layer="4702" from-port="5" to-layer="4704" to-port="0" />
		<edge from-layer="4703" from-port="0" to-layer="4704" to-port="1" />
		<edge from-layer="4704" from-port="2" to-layer="4709" to-port="0" />
		<edge from-layer="4705" from-port="0" to-layer="4708" to-port="1" />
		<edge from-layer="4706" from-port="0" to-layer="4708" to-port="2" />
		<edge from-layer="4707" from-port="0" to-layer="4708" to-port="3" />
		<edge from-layer="4708" from-port="5" to-layer="4709" to-port="1" />
		<edge from-layer="4709" from-port="2" to-layer="4710" to-port="0" />
		<edge from-layer="4710" from-port="2" to-layer="4711" to-port="1" />
		<edge from-layer="4711" from-port="2" to-layer="4712" to-port="1" />
		<edge from-layer="4712" from-port="2" to-layer="4713" to-port="0" />
		<edge from-layer="4712" from-port="2" to-layer="4784" to-port="0" />
		<edge from-layer="4754" from-port="0" to-layer="4855" to-port="0" />
		<edge from-layer="4755" from-port="0" to-layer="4756" to-port="0" />
		<edge from-layer="4756" from-port="1" to-layer="4758" to-port="0" />
		<edge from-layer="4757" from-port="0" to-layer="4758" to-port="1" />
		<edge from-layer="4758" from-port="2" to-layer="4760" to-port="0" />
		<edge from-layer="4759" from-port="0" to-layer="4760" to-port="1" />
		<edge from-layer="4760" from-port="2" to-layer="4761" to-port="0" />
		<edge from-layer="4761" from-port="1" to-layer="4762" to-port="1" />
		<edge from-layer="4762" from-port="2" to-layer="4765" to-port="0" />
		<edge from-layer="4763" from-port="0" to-layer="4764" to-port="0" />
		<edge from-layer="4764" from-port="1" to-layer="4765" to-port="1" />
		<edge from-layer="4765" from-port="2" to-layer="4767" to-port="0" />
		<edge from-layer="4766" from-port="0" to-layer="4767" to-port="1" />
		<edge from-layer="4767" from-port="2" to-layer="4769" to-port="0" />
		<edge from-layer="4768" from-port="0" to-layer="4769" to-port="1" />
		<edge from-layer="4769" from-port="2" to-layer="4770" to-port="0" />
		<edge from-layer="4769" from-port="2" to-layer="4774" to-port="0" />
		<edge from-layer="4769" from-port="2" to-layer="4780" to-port="0" />
		<edge from-layer="4770" from-port="2" to-layer="4783" to-port="0" />
		<edge from-layer="4771" from-port="0" to-layer="4774" to-port="1" />
		<edge from-layer="4772" from-port="0" to-layer="4774" to-port="2" />
		<edge from-layer="4773" from-port="0" to-layer="4774" to-port="3" />
		<edge from-layer="4774" from-port="5" to-layer="4776" to-port="0" />
		<edge from-layer="4775" from-port="0" to-layer="4776" to-port="1" />
		<edge from-layer="4776" from-port="2" to-layer="4781" to-port="0" />
		<edge from-layer="4777" from-port="0" to-layer="4780" to-port="1" />
		<edge from-layer="4778" from-port="0" to-layer="4780" to-port="2" />
		<edge from-layer="4779" from-port="0" to-layer="4780" to-port="3" />
		<edge from-layer="4780" from-port="5" to-layer="4781" to-port="1" />
		<edge from-layer="4781" from-port="2" to-layer="4782" to-port="0" />
		<edge from-layer="4782" from-port="2" to-layer="4783" to-port="1" />
		<edge from-layer="4783" from-port="2" to-layer="4792" to-port="0" />
		<edge from-layer="4784" from-port="2" to-layer="4785" to-port="0" />
		<edge from-layer="4785" from-port="2" to-layer="4787" to-port="0" />
		<edge from-layer="4786" from-port="0" to-layer="4787" to-port="1" />
		<edge from-layer="4787" from-port="2" to-layer="4792" to-port="1" />
		<edge from-layer="4788" from-port="2" to-layer="4789" to-port="0" />
		<edge from-layer="4789" from-port="2" to-layer="4791" to-port="0" />
		<edge from-layer="4790" from-port="0" to-layer="4791" to-port="1" />
		<edge from-layer="4791" from-port="2" to-layer="4792" to-port="2" />
		<edge from-layer="4792" from-port="4" to-layer="4794" to-port="0" />
		<edge from-layer="4793" from-port="0" to-layer="4794" to-port="1" />
		<edge from-layer="4794" from-port="2" to-layer="4796" to-port="0" />
		<edge from-layer="4795" from-port="0" to-layer="4796" to-port="1" />
		<edge from-layer="4796" from-port="2" to-layer="4804" to-port="0" />
		<edge from-layer="4797" from-port="0" to-layer="4798" to-port="0" />
		<edge from-layer="4798" from-port="1" to-layer="4800" to-port="0" />
		<edge from-layer="4799" from-port="0" to-layer="4800" to-port="1" />
		<edge from-layer="4800" from-port="2" to-layer="4802" to-port="0" />
		<edge from-layer="4801" from-port="0" to-layer="4802" to-port="1" />
		<edge from-layer="4802" from-port="2" to-layer="4803" to-port="0" />
		<edge from-layer="4803" from-port="1" to-layer="4804" to-port="1" />
		<edge from-layer="4804" from-port="2" to-layer="4805" to-port="1" />
		<edge from-layer="4805" from-port="2" to-layer="4809" to-port="0" />
		<edge from-layer="4805" from-port="2" to-layer="4816" to-port="0" />
		<edge from-layer="4805" from-port="2" to-layer="4844" to-port="0" />
		<edge from-layer="4806" from-port="0" to-layer="4817" to-port="0" />
		<edge from-layer="4807" from-port="0" to-layer="4815" to-port="0" />
		<edge from-layer="4808" from-port="0" to-layer="4809" to-port="1" />
		<edge from-layer="4809" from-port="2" to-layer="4811" to-port="0" />
		<edge from-layer="4810" from-port="0" to-layer="4811" to-port="1" />
		<edge from-layer="4811" from-port="2" to-layer="4813" to-port="0" />
		<edge from-layer="4812" from-port="0" to-layer="4813" to-port="1" />
		<edge from-layer="4813" from-port="2" to-layer="4814" to-port="0" />
		<edge from-layer="4814" from-port="1" to-layer="4815" to-port="1" />
		<edge from-layer="4815" from-port="2" to-layer="4816" to-port="1" />
		<edge from-layer="4816" from-port="2" to-layer="4817" to-port="1" />
		<edge from-layer="4817" from-port="2" to-layer="4825" to-port="0" />
		<edge from-layer="4817" from-port="2" to-layer="4834" to-port="0" />
		<edge from-layer="4818" from-port="0" to-layer="4819" to-port="0" />
		<edge from-layer="4819" from-port="1" to-layer="4821" to-port="0" />
		<edge from-layer="4820" from-port="0" to-layer="4821" to-port="1" />
		<edge from-layer="4821" from-port="2" to-layer="4823" to-port="0" />
		<edge from-layer="4822" from-port="0" to-layer="4823" to-port="1" />
		<edge from-layer="4823" from-port="2" to-layer="4824" to-port="0" />
		<edge from-layer="4824" from-port="1" to-layer="4825" to-port="1" />
		<edge from-layer="4825" from-port="2" to-layer="4826" to-port="0" />
		<edge from-layer="4826" from-port="1" to-layer="4835" to-port="0" />
		<edge from-layer="4827" from-port="0" to-layer="4828" to-port="0" />
		<edge from-layer="4828" from-port="1" to-layer="4830" to-port="0" />
		<edge from-layer="4829" from-port="0" to-layer="4830" to-port="1" />
		<edge from-layer="4830" from-port="2" to-layer="4832" to-port="0" />
		<edge from-layer="4831" from-port="0" to-layer="4832" to-port="1" />
		<edge from-layer="4832" from-port="2" to-layer="4833" to-port="0" />
		<edge from-layer="4833" from-port="1" to-layer="4834" to-port="1" />
		<edge from-layer="4834" from-port="2" to-layer="4835" to-port="1" />
		<edge from-layer="4835" from-port="2" to-layer="4843" to-port="0" />
		<edge from-layer="4836" from-port="0" to-layer="4837" to-port="0" />
		<edge from-layer="4837" from-port="1" to-layer="4839" to-port="0" />
		<edge from-layer="4838" from-port="0" to-layer="4839" to-port="1" />
		<edge from-layer="4839" from-port="2" to-layer="4841" to-port="0" />
		<edge from-layer="4840" from-port="0" to-layer="4841" to-port="1" />
		<edge from-layer="4841" from-port="2" to-layer="4842" to-port="0" />
		<edge from-layer="4842" from-port="1" to-layer="4843" to-port="1" />
		<edge from-layer="4843" from-port="2" to-layer="4844" to-port="1" />
		<edge from-layer="4844" from-port="2" to-layer="4847" to-port="0" />
		<edge from-layer="4844" from-port="2" to-layer="4854" to-port="0" />
		<edge from-layer="4845" from-port="0" to-layer="4853" to-port="0" />
		<edge from-layer="4846" from-port="0" to-layer="4847" to-port="1" />
		<edge from-layer="4847" from-port="2" to-layer="4849" to-port="0" />
		<edge from-layer="4848" from-port="0" to-layer="4849" to-port="1" />
		<edge from-layer="4849" from-port="2" to-layer="4851" to-port="0" />
		<edge from-layer="4850" from-port="0" to-layer="4851" to-port="1" />
		<edge from-layer="4851" from-port="2" to-layer="4852" to-port="0" />
		<edge from-layer="4852" from-port="1" to-layer="4853" to-port="1" />
		<edge from-layer="4853" from-port="2" to-layer="4854" to-port="1" />
		<edge from-layer="4854" from-port="2" to-layer="4855" to-port="1" />
		<edge from-layer="4855" from-port="2" to-layer="4864" to-port="0" />
		<edge from-layer="4856" from-port="0" to-layer="4857" to-port="0" />
		<edge from-layer="4857" from-port="1" to-layer="4860" to-port="0" />
		<edge from-layer="4858" from-port="0" to-layer="4859" to-port="0" />
		<edge from-layer="4859" from-port="1" to-layer="4860" to-port="1" />
		<edge from-layer="4860" from-port="2" to-layer="4862" to-port="0" />
		<edge from-layer="4861" from-port="0" to-layer="4862" to-port="1" />
		<edge from-layer="4862" from-port="2" to-layer="4863" to-port="0" />
		<edge from-layer="4863" from-port="1" to-layer="4864" to-port="1" />
		<edge from-layer="4864" from-port="2" to-layer="4865" to-port="0" />
	</edges>
	<rt_info>
		<Runtime_version value="2025.0.0-17942-1f68be9f594-releases/2025/0" />
		<conversion_parameters>
			<framework value="pytorch" />
			<is_python_object value="True" />
		</conversion_parameters>
		<nncf>
			<friendly_names_were_updated value="True" />
			<weight_compression>
				<advanced_parameters value="{'statistics_path': None, 'awq_params': {'subset_size': 32, 'percent_to_apply': 0.002, 'alpha_min': 0.0, 'alpha_max': 1.0, 'steps': 100}, 'scale_estimation_params': {'subset_size': 64, 'initial_steps': 5, 'scale_steps': 5, 'weight_penalty': -1.0}, 'gptq_params': {'damp_percent': 0.1, 'block_size': 128, 'subset_size': 128}, 'lora_correction_params': {'adapter_rank': 8, 'num_iterations': 3, 'apply_regularization': True, 'subset_size': 128, 'use_int8_adapters': True}}" />
				<all_layers value="False" />
				<awq value="False" />
				<backup_mode value="int8_asym" />
				<gptq value="False" />
				<group_size value="128" />
				<ignored_scope value="[]" />
				<lora_correction value="False" />
				<mode value="int4_sym" />
				<ratio value="1.0" />
				<scale_estimation value="False" />
				<sensitivity_metric value="weight_quantization_error" />
			</weight_compression>
		</nncf>
		<optimum>
			<optimum_intel_version value="1.23.0.dev0+8c94f53" />
			<optimum_version value="1.24.0" />
			<pytorch_version value="2.5.1" />
			<transformers_version value="4.46.2" />
		</optimum>
		<runtime_options>
			<ACTIVATIONS_SCALE_FACTOR value="8.0" />
		</runtime_options>
	</rt_info>
</net>
